…
adapter type output_adapter
adapter type output_adapter
adapter type output_adapter
adapter type output_adapter
adapter type output_adapter
adapter type output_adapter
adapter type output_adapter
adapter type output_adapter
adapter type output_adapter
adapter type output_adapter
adapter type output_adapter
adapter type output_adapter
BASE Model BottleneckModel(
  (model): PaliGemma_VQA(
    (model): PaliGemmaForConditionalGeneration(
      (vision_tower): SiglipVisionModel(
        (vision_model): SiglipVisionTransformer(
          (embeddings): SiglipVisionEmbeddings(
            (patch_embedding): Conv2d(3, 1152, kernel_size=(14, 14), stride=(14, 14), padding=valid)
            (position_embedding): Embedding(256, 1152)
          )
          (encoder): SiglipEncoder(
            (layers): ModuleList(
              (0-26): 27 x SiglipEncoderLayer(
                (self_attn): SiglipSdpaAttention(
                  (k_proj): Linear(
                    in_features=1152, out_features=1152, bias=True
                    (adapter_dropout): Dropout(p=0.1, inplace=False)
                    (adapter_down): Linear(in_features=1152, out_features=1024, bias=False)
                    (adapter_up): Linear(in_features=1024, out_features=1152, bias=False)
                    (act_fn): ReLU()
                  )
                  (v_proj): Linear(
                    in_features=1152, out_features=1152, bias=True
                    (adapter_dropout): Dropout(p=0.1, inplace=False)
                    (adapter_down): Linear(in_features=1152, out_features=1024, bias=False)
                    (adapter_up): Linear(in_features=1024, out_features=1152, bias=False)
                    (act_fn): ReLU()
                  )
                  (q_proj): Linear(
                    in_features=1152, out_features=1152, bias=True
                    (adapter_dropout): Dropout(p=0.1, inplace=False)
                    (adapter_down): Linear(in_features=1152, out_features=1024, bias=False)
                    (adapter_up): Linear(in_features=1024, out_features=1152, bias=False)
                    (act_fn): ReLU()
                  )
                  (out_proj): Linear(in_features=1152, out_features=1152, bias=True)
                )
                (layer_norm1): LayerNorm((1152,), eps=1e-06, elementwise_affine=True)
                (mlp): SiglipMLP(
                  (activation_fn): PytorchGELUTanh()
                  (fc1): Linear(in_features=1152, out_features=4304, bias=True)
                  (fc2): Linear(in_features=4304, out_features=1152, bias=True)
                )
                (layer_norm2): LayerNorm((1152,), eps=1e-06, elementwise_affine=True)
              )
            )
          )
          (post_layernorm): LayerNorm((1152,), eps=1e-06, elementwise_affine=True)
        )
      )
      (multi_modal_projector): PaliGemmaMultiModalProjector(
        (linear): Linear(in_features=1152, out_features=2048, bias=True)
      )
      (language_model): GemmaForCausalLM(
        (model): GemmaModel(
          (embed_tokens): Embedding(257216, 2048, padding_idx=0)
          (layers): ModuleList(
            (0-17): 18 x GemmaDecoderLayer(
              (self_attn): GemmaSdpaAttention(
                (q_proj): Linear(
                  in_features=2048, out_features=2048, bias=False
                  (adapter_dropout): Dropout(p=0.1, inplace=False)
                  (adapter_down): Linear(in_features=2048, out_features=1024, bias=False)
                  (adapter_up): Linear(in_features=1024, out_features=2048, bias=False)
                  (act_fn): ReLU()
                )
                (k_proj): Linear(
                  in_features=256, out_features=256, bias=False
                  (adapter_dropout): Dropout(p=0.1, inplace=False)
                  (adapter_down): Linear(in_features=256, out_features=1024, bias=False)
                  (adapter_up): Linear(in_features=1024, out_features=256, bias=False)
                  (act_fn): ReLU()
                )
                (v_proj): Linear(
                  in_features=256, out_features=256, bias=False
                  (adapter_dropout): Dropout(p=0.1, inplace=False)
                  (adapter_down): Linear(in_features=256, out_features=1024, bias=False)
                  (adapter_up): Linear(in_features=1024, out_features=256, bias=False)
                  (act_fn): ReLU()
                )
                (o_proj): Linear(
                  in_features=2048, out_features=2048, bias=False
                  (adapter_dropout): Dropout(p=0.1, inplace=False)
                  (adapter_down): Linear(in_features=2048, out_features=1024, bias=False)
                  (adapter_up): Linear(in_features=1024, out_features=2048, bias=False)
                  (act_fn): ReLU()
                )
                (rotary_emb): GemmaRotaryEmbedding()
              )
              (mlp): GemmaMLP(
                (gate_proj): Linear(in_features=2048, out_features=16384, bias=False)
                (up_proj): Linear(in_features=2048, out_features=16384, bias=False)
                (down_proj): Linear(in_features=16384, out_features=2048, bias=False)
                (act_fn): PytorchGELUTanh()
              )
              (input_layernorm): GemmaRMSNorm((2048,), eps=1e-06)
              (post_attention_layernorm): GemmaRMSNorm((2048,), eps=1e-06)
            )
          )
          (norm): GemmaRMSNorm((2048,), eps=1e-06)
        )
        (lm_head): Linear(in_features=2048, out_features=257216, bias=False)
      )
    )
  )
)
trainable params: 360972288 || all params: 3284438768 || trainable%: 10.990379589868487
PeftModelForCausalLM(
  (base_model): BottleneckModel(
    (model): PaliGemma_VQA(
      (model): PaliGemmaForConditionalGeneration(
        (vision_tower): SiglipVisionModel(
          (vision_model): SiglipVisionTransformer(
            (embeddings): SiglipVisionEmbeddings(
              (patch_embedding): Conv2d(3, 1152, kernel_size=(14, 14), stride=(14, 14), padding=valid)
              (position_embedding): Embedding(256, 1152)
            )
            (encoder): SiglipEncoder(
              (layers): ModuleList(
                (0-26): 27 x SiglipEncoderLayer(
                  (self_attn): SiglipSdpaAttention(
                    (k_proj): Linear(
                      in_features=1152, out_features=1152, bias=True
                      (adapter_dropout): Dropout(p=0.1, inplace=False)
                      (adapter_down): Linear(in_features=1152, out_features=1024, bias=False)
                      (adapter_up): Linear(in_features=1024, out_features=1152, bias=False)
                      (act_fn): ReLU()
                    )
                    (v_proj): Linear(
                      in_features=1152, out_features=1152, bias=True
                      (adapter_dropout): Dropout(p=0.1, inplace=False)
                      (adapter_down): Linear(in_features=1152, out_features=1024, bias=False)
                      (adapter_up): Linear(in_features=1024, out_features=1152, bias=False)
                      (act_fn): ReLU()
                    )
                    (q_proj): Linear(
                      in_features=1152, out_features=1152, bias=True
                      (adapter_dropout): Dropout(p=0.1, inplace=False)
                      (adapter_down): Linear(in_features=1152, out_features=1024, bias=False)
                      (adapter_up): Linear(in_features=1024, out_features=1152, bias=False)
                      (act_fn): ReLU()
                    )
                    (out_proj): Linear(in_features=1152, out_features=1152, bias=True)
                  )
                  (layer_norm1): LayerNorm((1152,), eps=1e-06, elementwise_affine=True)
                  (mlp): SiglipMLP(
                    (activation_fn): PytorchGELUTanh()
                    (fc1): Linear(in_features=1152, out_features=4304, bias=True)
                    (fc2): Linear(in_features=4304, out_features=1152, bias=True)
                  )
                  (layer_norm2): LayerNorm((1152,), eps=1e-06, elementwise_affine=True)
                )
              )
            )
            (post_layernorm): LayerNorm((1152,), eps=1e-06, elementwise_affine=True)
          )
        )
        (multi_modal_projector): PaliGemmaMultiModalProjector(
          (linear): Linear(in_features=1152, out_features=2048, bias=True)
        )
        (language_model): GemmaForCausalLM(
          (model): GemmaModel(
            (embed_tokens): Embedding(257216, 2048, padding_idx=0)
            (layers): ModuleList(
              (0-17): 18 x GemmaDecoderLayer(
                (self_attn): GemmaSdpaAttention(
                  (q_proj): Linear(
                    in_features=2048, out_features=2048, bias=False
                    (adapter_dropout): Dropout(p=0.1, inplace=False)
                    (adapter_down): Linear(in_features=2048, out_features=1024, bias=False)
                    (adapter_up): Linear(in_features=1024, out_features=2048, bias=False)
                    (act_fn): ReLU()
                  )
                  (k_proj): Linear(
                    in_features=256, out_features=256, bias=False
                    (adapter_dropout): Dropout(p=0.1, inplace=False)
                    (adapter_down): Linear(in_features=256, out_features=1024, bias=False)
                    (adapter_up): Linear(in_features=1024, out_features=256, bias=False)
                    (act_fn): ReLU()
                  )
                  (v_proj): Linear(
                    in_features=256, out_features=256, bias=False
                    (adapter_dropout): Dropout(p=0.1, inplace=False)
                    (adapter_down): Linear(in_features=256, out_features=1024, bias=False)
                    (adapter_up): Linear(in_features=1024, out_features=256, bias=False)
                    (act_fn): ReLU()
                  )
                  (o_proj): Linear(
                    in_features=2048, out_features=2048, bias=False
                    (adapter_dropout): Dropout(p=0.1, inplace=False)
                    (adapter_down): Linear(in_features=2048, out_features=1024, bias=False)
                    (adapter_up): Linear(in_features=1024, out_features=2048, bias=False)
                    (act_fn): ReLU()
                  )
                  (rotary_emb): GemmaRotaryEmbedding()
                )
                (mlp): GemmaMLP(
                  (gate_proj): Linear(in_features=2048, out_features=16384, bias=False)
                  (up_proj): Linear(in_features=2048, out_features=16384, bias=False)
                  (down_proj): Linear(in_features=16384, out_features=2048, bias=False)
                  (act_fn): PytorchGELUTanh()
                )
                (input_layernorm): GemmaRMSNorm((2048,), eps=1e-06)
                (post_attention_layernorm): GemmaRMSNorm((2048,), eps=1e-06)
              )
            )
            (norm): GemmaRMSNorm((2048,), eps=1e-06)
          )
          (lm_head): Linear(in_features=2048, out_features=257216, bias=False)
        )
      )
    )
  )
)
Final Model before runner PeftModelForCausalLM(
  (base_model): BottleneckModel(
    (model): PaliGemma_VQA(
      (model): PaliGemmaForConditionalGeneration(
        (vision_tower): SiglipVisionModel(
          (vision_model): SiglipVisionTransformer(
            (embeddings): SiglipVisionEmbeddings(
              (patch_embedding): Conv2d(3, 1152, kernel_size=(14, 14), stride=(14, 14), padding=valid)
              (position_embedding): Embedding(256, 1152)
            )
            (encoder): SiglipEncoder(
              (layers): ModuleList(
                (0-26): 27 x SiglipEncoderLayer(
                  (self_attn): SiglipSdpaAttention(
                    (k_proj): Linear(
                      in_features=1152, out_features=1152, bias=True
                      (adapter_dropout): Dropout(p=0.1, inplace=False)
                      (adapter_down): Linear(in_features=1152, out_features=1024, bias=False)
                      (adapter_up): Linear(in_features=1024, out_features=1152, bias=False)
                      (act_fn): ReLU()
                    )
                    (v_proj): Linear(
                      in_features=1152, out_features=1152, bias=True
                      (adapter_dropout): Dropout(p=0.1, inplace=False)
                      (adapter_down): Linear(in_features=1152, out_features=1024, bias=False)
                      (adapter_up): Linear(in_features=1024, out_features=1152, bias=False)
                      (act_fn): ReLU()
                    )
                    (q_proj): Linear(
                      in_features=1152, out_features=1152, bias=True
                      (adapter_dropout): Dropout(p=0.1, inplace=False)
                      (adapter_down): Linear(in_features=1152, out_features=1024, bias=False)
                      (adapter_up): Linear(in_features=1024, out_features=1152, bias=False)
                      (act_fn): ReLU()
                    )
                    (out_proj): Linear(in_features=1152, out_features=1152, bias=True)
                  )
                  (layer_norm1): LayerNorm((1152,), eps=1e-06, elementwise_affine=True)
                  (mlp): SiglipMLP(
                    (activation_fn): PytorchGELUTanh()
                    (fc1): Linear(in_features=1152, out_features=4304, bias=True)
                    (fc2): Linear(in_features=4304, out_features=1152, bias=True)
                  )
                  (layer_norm2): LayerNorm((1152,), eps=1e-06, elementwise_affine=True)
                )
              )
            )
            (post_layernorm): LayerNorm((1152,), eps=1e-06, elementwise_affine=True)
          )
        )
        (multi_modal_projector): PaliGemmaMultiModalProjector(
          (linear): Linear(in_features=1152, out_features=2048, bias=True)
        )
        (language_model): GemmaForCausalLM(
          (model): GemmaModel(
            (embed_tokens): Embedding(257216, 2048, padding_idx=0)
            (layers): ModuleList(
              (0-17): 18 x GemmaDecoderLayer(
                (self_attn): GemmaSdpaAttention(
                  (q_proj): Linear(
                    in_features=2048, out_features=2048, bias=False
                    (adapter_dropout): Dropout(p=0.1, inplace=False)
                    (adapter_down): Linear(in_features=2048, out_features=1024, bias=False)
                    (adapter_up): Linear(in_features=1024, out_features=2048, bias=False)
                    (act_fn): ReLU()
                  )
                  (k_proj): Linear(
                    in_features=256, out_features=256, bias=False
                    (adapter_dropout): Dropout(p=0.1, inplace=False)
                    (adapter_down): Linear(in_features=256, out_features=1024, bias=False)
                    (adapter_up): Linear(in_features=1024, out_features=256, bias=False)
                    (act_fn): ReLU()
                  )
                  (v_proj): Linear(
                    in_features=256, out_features=256, bias=False
                    (adapter_dropout): Dropout(p=0.1, inplace=False)
                    (adapter_down): Linear(in_features=256, out_features=1024, bias=False)
                    (adapter_up): Linear(in_features=1024, out_features=256, bias=False)
                    (act_fn): ReLU()
                  )
                  (o_proj): Linear(
                    in_features=2048, out_features=2048, bias=False
                    (adapter_dropout): Dropout(p=0.1, inplace=False)
                    (adapter_down): Linear(in_features=2048, out_features=1024, bias=False)
                    (adapter_up): Linear(in_features=1024, out_features=2048, bias=False)
                    (act_fn): ReLU()
                  )
                  (rotary_emb): GemmaRotaryEmbedding()
                )
                (mlp): GemmaMLP(
                  (gate_proj): Linear(in_features=2048, out_features=16384, bias=False)
                  (up_proj): Linear(in_features=2048, out_features=16384, bias=False)
                  (down_proj): Linear(in_features=16384, out_features=2048, bias=False)
                  (act_fn): PytorchGELUTanh()
                )
                (input_layernorm): GemmaRMSNorm((2048,), eps=1e-06)
                (post_attention_layernorm): GemmaRMSNorm((2048,), eps=1e-06)
              )
            )
            (norm): GemmaRMSNorm((2048,), eps=1e-06)
          )
          (lm_head): Linear(in_features=2048, out_features=257216, bias=False)
        )
      )
    )
  )
)
and it's device cuda:0
Device check cuda:0 cuda
DistributedDataParallel(
  (module): PeftModelForCausalLM(
    (base_model): BottleneckModel(
      (model): PaliGemma_VQA(
        (model): PaliGemmaForConditionalGeneration(
          (vision_tower): SiglipVisionModel(
            (vision_model): SiglipVisionTransformer(
              (embeddings): SiglipVisionEmbeddings(
                (patch_embedding): Conv2d(3, 1152, kernel_size=(14, 14), stride=(14, 14), padding=valid)
                (position_embedding): Embedding(256, 1152)
              )
              (encoder): SiglipEncoder(
                (layers): ModuleList(
                  (0-26): 27 x SiglipEncoderLayer(
                    (self_attn): SiglipSdpaAttention(
                      (k_proj): Linear(
                        in_features=1152, out_features=1152, bias=True
                        (adapter_dropout): Dropout(p=0.1, inplace=False)
                        (adapter_down): Linear(in_features=1152, out_features=1024, bias=False)
                        (adapter_up): Linear(in_features=1024, out_features=1152, bias=False)
                        (act_fn): ReLU()
                      )
                      (v_proj): Linear(
                        in_features=1152, out_features=1152, bias=True
                        (adapter_dropout): Dropout(p=0.1, inplace=False)
                        (adapter_down): Linear(in_features=1152, out_features=1024, bias=False)
                        (adapter_up): Linear(in_features=1024, out_features=1152, bias=False)
                        (act_fn): ReLU()
                      )
                      (q_proj): Linear(
                        in_features=1152, out_features=1152, bias=True
                        (adapter_dropout): Dropout(p=0.1, inplace=False)
                        (adapter_down): Linear(in_features=1152, out_features=1024, bias=False)
                        (adapter_up): Linear(in_features=1024, out_features=1152, bias=False)
                        (act_fn): ReLU()
                      )
                      (out_proj): Linear(in_features=1152, out_features=1152, bias=True)
                    )
                    (layer_norm1): LayerNorm((1152,), eps=1e-06, elementwise_affine=True)
                    (mlp): SiglipMLP(
                      (activation_fn): PytorchGELUTanh()
                      (fc1): Linear(in_features=1152, out_features=4304, bias=True)
                      (fc2): Linear(in_features=4304, out_features=1152, bias=True)
                    )
                    (layer_norm2): LayerNorm((1152,), eps=1e-06, elementwise_affine=True)
                  )
                )
              )
              (post_layernorm): LayerNorm((1152,), eps=1e-06, elementwise_affine=True)
            )
          )
          (multi_modal_projector): PaliGemmaMultiModalProjector(
            (linear): Linear(in_features=1152, out_features=2048, bias=True)
          )
          (language_model): GemmaForCausalLM(
            (model): GemmaModel(
              (embed_tokens): Embedding(257216, 2048, padding_idx=0)
              (layers): ModuleList(
                (0-17): 18 x GemmaDecoderLayer(
                  (self_attn): GemmaSdpaAttention(
                    (q_proj): Linear(
                      in_features=2048, out_features=2048, bias=False
                      (adapter_dropout): Dropout(p=0.1, inplace=False)
                      (adapter_down): Linear(in_features=2048, out_features=1024, bias=False)
                      (adapter_up): Linear(in_features=1024, out_features=2048, bias=False)
                      (act_fn): ReLU()
                    )
                    (k_proj): Linear(
                      in_features=256, out_features=256, bias=False
                      (adapter_dropout): Dropout(p=0.1, inplace=False)
                      (adapter_down): Linear(in_features=256, out_features=1024, bias=False)
                      (adapter_up): Linear(in_features=1024, out_features=256, bias=False)
                      (act_fn): ReLU()
                    )
                    (v_proj): Linear(
                      in_features=256, out_features=256, bias=False
                      (adapter_dropout): Dropout(p=0.1, inplace=False)
                      (adapter_down): Linear(in_features=256, out_features=1024, bias=False)
                      (adapter_up): Linear(in_features=1024, out_features=256, bias=False)
                      (act_fn): ReLU()
                    )
                    (o_proj): Linear(
                      in_features=2048, out_features=2048, bias=False
                      (adapter_dropout): Dropout(p=0.1, inplace=False)
                      (adapter_down): Linear(in_features=2048, out_features=1024, bias=False)
                      (adapter_up): Linear(in_features=1024, out_features=2048, bias=False)
                      (act_fn): ReLU()
                    )
                    (rotary_emb): GemmaRotaryEmbedding()
                  )
                  (mlp): GemmaMLP(
                    (gate_proj): Linear(in_features=2048, out_features=16384, bias=False)
                    (up_proj): Linear(in_features=2048, out_features=16384, bias=False)
                    (down_proj): Linear(in_features=16384, out_features=2048, bias=False)
                    (act_fn): PytorchGELUTanh()
                  )
                  (input_layernorm): GemmaRMSNorm((2048,), eps=1e-06)
                  (post_attention_layernorm): GemmaRMSNorm((2048,), eps=1e-06)
                )
              )
              (norm): GemmaRMSNorm((2048,), eps=1e-06)
            )
            (lm_head): Linear(in_features=2048, out_features=257216, bias=False)
          )
        )
      )
    )
  )
)
DistributedDataParallel(
  (module): PeftModelForCausalLM(
    (base_model): BottleneckModel(
      (model): PaliGemma_VQA(
        (model): PaliGemmaForConditionalGeneration(
          (vision_tower): SiglipVisionModel(
            (vision_model): SiglipVisionTransformer(
              (embeddings): SiglipVisionEmbeddings(
                (patch_embedding): Conv2d(3, 1152, kernel_size=(14, 14), stride=(14, 14), padding=valid)
                (position_embedding): Embedding(256, 1152)
              )
              (encoder): SiglipEncoder(
                (layers): ModuleList(
                  (0-26): 27 x SiglipEncoderLayer(
                    (self_attn): SiglipSdpaAttention(
                      (k_proj): Linear(
                        in_features=1152, out_features=1152, bias=True
                        (adapter_dropout): Dropout(p=0.1, inplace=False)
                        (adapter_down): Linear(in_features=1152, out_features=1024, bias=False)
                        (adapter_up): Linear(in_features=1024, out_features=1152, bias=False)
                        (act_fn): ReLU()
                      )
                      (v_proj): Linear(
                        in_features=1152, out_features=1152, bias=True
                        (adapter_dropout): Dropout(p=0.1, inplace=False)
                        (adapter_down): Linear(in_features=1152, out_features=1024, bias=False)
                        (adapter_up): Linear(in_features=1024, out_features=1152, bias=False)
                        (act_fn): ReLU()
                      )
                      (q_proj): Linear(
                        in_features=1152, out_features=1152, bias=True
                        (adapter_dropout): Dropout(p=0.1, inplace=False)
                        (adapter_down): Linear(in_features=1152, out_features=1024, bias=False)
                        (adapter_up): Linear(in_features=1024, out_features=1152, bias=False)
                        (act_fn): ReLU()
                      )
                      (out_proj): Linear(in_features=1152, out_features=1152, bias=True)
                    )
                    (layer_norm1): LayerNorm((1152,), eps=1e-06, elementwise_affine=True)
                    (mlp): SiglipMLP(
                      (activation_fn): PytorchGELUTanh()
                      (fc1): Linear(in_features=1152, out_features=4304, bias=True)
                      (fc2): Linear(in_features=4304, out_features=1152, bias=True)
                    )
                    (layer_norm2): LayerNorm((1152,), eps=1e-06, elementwise_affine=True)
                  )
                )
              )
              (post_layernorm): LayerNorm((1152,), eps=1e-06, elementwise_affine=True)
            )
          )
          (multi_modal_projector): PaliGemmaMultiModalProjector(
            (linear): Linear(in_features=1152, out_features=2048, bias=True)
          )
          (language_model): GemmaForCausalLM(
            (model): GemmaModel(
              (embed_tokens): Embedding(257216, 2048, padding_idx=0)
              (layers): ModuleList(
                (0-17): 18 x GemmaDecoderLayer(
                  (self_attn): GemmaSdpaAttention(
                    (q_proj): Linear(
                      in_features=2048, out_features=2048, bias=False
                      (adapter_dropout): Dropout(p=0.1, inplace=False)
                      (adapter_down): Linear(in_features=2048, out_features=1024, bias=False)
                      (adapter_up): Linear(in_features=1024, out_features=2048, bias=False)
                      (act_fn): ReLU()
                    )
                    (k_proj): Linear(
                      in_features=256, out_features=256, bias=False
                      (adapter_dropout): Dropout(p=0.1, inplace=False)
                      (adapter_down): Linear(in_features=256, out_features=1024, bias=False)
                      (adapter_up): Linear(in_features=1024, out_features=256, bias=False)
                      (act_fn): ReLU()
                    )
                    (v_proj): Linear(
                      in_features=256, out_features=256, bias=False
                      (adapter_dropout): Dropout(p=0.1, inplace=False)
                      (adapter_down): Linear(in_features=256, out_features=1024, bias=False)
                      (adapter_up): Linear(in_features=1024, out_features=256, bias=False)
                      (act_fn): ReLU()
                    )
                    (o_proj): Linear(
                      in_features=2048, out_features=2048, bias=False
                      (adapter_dropout): Dropout(p=0.1, inplace=False)
                      (adapter_down): Linear(in_features=2048, out_features=1024, bias=False)
                      (adapter_up): Linear(in_features=1024, out_features=2048, bias=False)
                      (act_fn): ReLU()
                    )
                    (rotary_emb): GemmaRotaryEmbedding()
                  )
                  (mlp): GemmaMLP(
                    (gate_proj): Linear(in_features=2048, out_features=16384, bias=False)
                    (up_proj): Linear(in_features=2048, out_features=16384, bias=False)
                    (down_proj): Linear(in_features=16384, out_features=2048, bias=False)
                    (act_fn): PytorchGELUTanh()
                  )
                  (input_layernorm): GemmaRMSNorm((2048,), eps=1e-06)
                  (post_attention_layernorm): GemmaRMSNorm((2048,), eps=1e-06)
                )
              )
              (norm): GemmaRMSNorm((2048,), eps=1e-06)
            )
            (lm_head): Linear(in_features=2048, out_features=257216, bias=False)
          )
        )
      )
    )
  )
)
Device check cuda:0 cuda
DistributedDataParallel(
  (module): PeftModelForCausalLM(
    (base_model): BottleneckModel(
      (model): PaliGemma_VQA(
        (model): PaliGemmaForConditionalGeneration(
          (vision_tower): SiglipVisionModel(
            (vision_model): SiglipVisionTransformer(
              (embeddings): SiglipVisionEmbeddings(
                (patch_embedding): Conv2d(3, 1152, kernel_size=(14, 14), stride=(14, 14), padding=valid)
                (position_embedding): Embedding(256, 1152)
              )
              (encoder): SiglipEncoder(
                (layers): ModuleList(
                  (0-26): 27 x SiglipEncoderLayer(
                    (self_attn): SiglipSdpaAttention(
                      (k_proj): Linear(
                        in_features=1152, out_features=1152, bias=True
                        (adapter_dropout): Dropout(p=0.1, inplace=False)
                        (adapter_down): Linear(in_features=1152, out_features=1024, bias=False)
                        (adapter_up): Linear(in_features=1024, out_features=1152, bias=False)
                        (act_fn): ReLU()
                      )
                      (v_proj): Linear(
                        in_features=1152, out_features=1152, bias=True
                        (adapter_dropout): Dropout(p=0.1, inplace=False)
                        (adapter_down): Linear(in_features=1152, out_features=1024, bias=False)
                        (adapter_up): Linear(in_features=1024, out_features=1152, bias=False)
                        (act_fn): ReLU()
                      )
                      (q_proj): Linear(
                        in_features=1152, out_features=1152, bias=True
                        (adapter_dropout): Dropout(p=0.1, inplace=False)
                        (adapter_down): Linear(in_features=1152, out_features=1024, bias=False)
                        (adapter_up): Linear(in_features=1024, out_features=1152, bias=False)
                        (act_fn): ReLU()
                      )
                      (out_proj): Linear(in_features=1152, out_features=1152, bias=True)
                    )
                    (layer_norm1): LayerNorm((1152,), eps=1e-06, elementwise_affine=True)
                    (mlp): SiglipMLP(
                      (activation_fn): PytorchGELUTanh()
                      (fc1): Linear(in_features=1152, out_features=4304, bias=True)
                      (fc2): Linear(in_features=4304, out_features=1152, bias=True)
                    )
                    (layer_norm2): LayerNorm((1152,), eps=1e-06, elementwise_affine=True)
                  )
                )
              )
              (post_layernorm): LayerNorm((1152,), eps=1e-06, elementwise_affine=True)
            )
          )
          (multi_modal_projector): PaliGemmaMultiModalProjector(
            (linear): Linear(in_features=1152, out_features=2048, bias=True)
          )
          (language_model): GemmaForCausalLM(
            (model): GemmaModel(
              (embed_tokens): Embedding(257216, 2048, padding_idx=0)
              (layers): ModuleList(
                (0-17): 18 x GemmaDecoderLayer(
                  (self_attn): GemmaSdpaAttention(
                    (q_proj): Linear(
                      in_features=2048, out_features=2048, bias=False
                      (adapter_dropout): Dropout(p=0.1, inplace=False)
                      (adapter_down): Linear(in_features=2048, out_features=1024, bias=False)
                      (adapter_up): Linear(in_features=1024, out_features=2048, bias=False)
                      (act_fn): ReLU()
                    )
                    (k_proj): Linear(
                      in_features=256, out_features=256, bias=False
                      (adapter_dropout): Dropout(p=0.1, inplace=False)
                      (adapter_down): Linear(in_features=256, out_features=1024, bias=False)
                      (adapter_up): Linear(in_features=1024, out_features=256, bias=False)
                      (act_fn): ReLU()
                    )
                    (v_proj): Linear(
                      in_features=256, out_features=256, bias=False
                      (adapter_dropout): Dropout(p=0.1, inplace=False)
                      (adapter_down): Linear(in_features=256, out_features=1024, bias=False)
                      (adapter_up): Linear(in_features=1024, out_features=256, bias=False)
                      (act_fn): ReLU()
                    )
                    (o_proj): Linear(
                      in_features=2048, out_features=2048, bias=False
                      (adapter_dropout): Dropout(p=0.1, inplace=False)
                      (adapter_down): Linear(in_features=2048, out_features=1024, bias=False)
                      (adapter_up): Linear(in_features=1024, out_features=2048, bias=False)
                      (act_fn): ReLU()
                    )
                    (rotary_emb): GemmaRotaryEmbedding()
                  )
                  (mlp): GemmaMLP(
                    (gate_proj): Linear(in_features=2048, out_features=16384, bias=False)
                    (up_proj): Linear(in_features=2048, out_features=16384, bias=False)
                    (down_proj): Linear(in_features=16384, out_features=2048, bias=False)
                    (act_fn): PytorchGELUTanh()
                  )
                  (input_layernorm): GemmaRMSNorm((2048,), eps=1e-06)
                  (post_attention_layernorm): GemmaRMSNorm((2048,), eps=1e-06)
                )
              )
              (norm): GemmaRMSNorm((2048,), eps=1e-06)
            )
            (lm_head): Linear(in_features=2048, out_features=257216, bias=False)
          )
        )
      )
    )
  )
)
Device check cuda:0 cuda
DistributedDataParallel(
  (module): PeftModelForCausalLM(
    (base_model): BottleneckModel(
      (model): PaliGemma_VQA(
        (model): PaliGemmaForConditionalGeneration(
          (vision_tower): SiglipVisionModel(
            (vision_model): SiglipVisionTransformer(
              (embeddings): SiglipVisionEmbeddings(
                (patch_embedding): Conv2d(3, 1152, kernel_size=(14, 14), stride=(14, 14), padding=valid)
                (position_embedding): Embedding(256, 1152)
              )
              (encoder): SiglipEncoder(
                (layers): ModuleList(
                  (0-26): 27 x SiglipEncoderLayer(
                    (self_attn): SiglipSdpaAttention(
                      (k_proj): Linear(
                        in_features=1152, out_features=1152, bias=True
                        (adapter_dropout): Dropout(p=0.1, inplace=False)
                        (adapter_down): Linear(in_features=1152, out_features=1024, bias=False)
                        (adapter_up): Linear(in_features=1024, out_features=1152, bias=False)
                        (act_fn): ReLU()
                      )
                      (v_proj): Linear(
                        in_features=1152, out_features=1152, bias=True
                        (adapter_dropout): Dropout(p=0.1, inplace=False)
                        (adapter_down): Linear(in_features=1152, out_features=1024, bias=False)
                        (adapter_up): Linear(in_features=1024, out_features=1152, bias=False)
                        (act_fn): ReLU()
                      )
                      (q_proj): Linear(
                        in_features=1152, out_features=1152, bias=True
                        (adapter_dropout): Dropout(p=0.1, inplace=False)
                        (adapter_down): Linear(in_features=1152, out_features=1024, bias=False)
                        (adapter_up): Linear(in_features=1024, out_features=1152, bias=False)
                        (act_fn): ReLU()
                      )
                      (out_proj): Linear(in_features=1152, out_features=1152, bias=True)
                    )
                    (layer_norm1): LayerNorm((1152,), eps=1e-06, elementwise_affine=True)
                    (mlp): SiglipMLP(
                      (activation_fn): PytorchGELUTanh()
                      (fc1): Linear(in_features=1152, out_features=4304, bias=True)
                      (fc2): Linear(in_features=4304, out_features=1152, bias=True)
                    )
                    (layer_norm2): LayerNorm((1152,), eps=1e-06, elementwise_affine=True)
                  )
                )
              )
              (post_layernorm): LayerNorm((1152,), eps=1e-06, elementwise_affine=True)
            )
          )
          (multi_modal_projector): PaliGemmaMultiModalProjector(
            (linear): Linear(in_features=1152, out_features=2048, bias=True)
          )
          (language_model): GemmaForCausalLM(
            (model): GemmaModel(
              (embed_tokens): Embedding(257216, 2048, padding_idx=0)
              (layers): ModuleList(
                (0-17): 18 x GemmaDecoderLayer(
                  (self_attn): GemmaSdpaAttention(
                    (q_proj): Linear(
                      in_features=2048, out_features=2048, bias=False
                      (adapter_dropout): Dropout(p=0.1, inplace=False)
                      (adapter_down): Linear(in_features=2048, out_features=1024, bias=False)
                      (adapter_up): Linear(in_features=1024, out_features=2048, bias=False)
                      (act_fn): ReLU()
                    )
                    (k_proj): Linear(
                      in_features=256, out_features=256, bias=False
                      (adapter_dropout): Dropout(p=0.1, inplace=False)
                      (adapter_down): Linear(in_features=256, out_features=1024, bias=False)
                      (adapter_up): Linear(in_features=1024, out_features=256, bias=False)
                      (act_fn): ReLU()
                    )
                    (v_proj): Linear(
                      in_features=256, out_features=256, bias=False
                      (adapter_dropout): Dropout(p=0.1, inplace=False)
                      (adapter_down): Linear(in_features=256, out_features=1024, bias=False)
                      (adapter_up): Linear(in_features=1024, out_features=256, bias=False)
                      (act_fn): ReLU()
                    )
                    (o_proj): Linear(
                      in_features=2048, out_features=2048, bias=False
                      (adapter_dropout): Dropout(p=0.1, inplace=False)
                      (adapter_down): Linear(in_features=2048, out_features=1024, bias=False)
                      (adapter_up): Linear(in_features=1024, out_features=2048, bias=False)
                      (act_fn): ReLU()
                    )
                    (rotary_emb): GemmaRotaryEmbedding()
                  )
                  (mlp): GemmaMLP(
                    (gate_proj): Linear(in_features=2048, out_features=16384, bias=False)
                    (up_proj): Linear(in_features=2048, out_features=16384, bias=False)
                    (down_proj): Linear(in_features=16384, out_features=2048, bias=False)
                    (act_fn): PytorchGELUTanh()
                  )
                  (input_layernorm): GemmaRMSNorm((2048,), eps=1e-06)
                  (post_attention_layernorm): GemmaRMSNorm((2048,), eps=1e-06)
                )
              )
              (norm): GemmaRMSNorm((2048,), eps=1e-06)
            )
            (lm_head): Linear(in_features=2048, out_features=257216, bias=False)
          )
        )
      )
    )
  )
)
optimizer:  AdamW (
Parameter Group 0
    amsgrad: False
    betas: (0.9, 0.999)
    capturable: False
    differentiable: False
    eps: 1e-08
    foreach: None
    fused: None
    lr: 1e-05
    maximize: False
    weight_decay: 1e-06
)
Train: data epoch: [0]  [    0/10282]  eta: 14:44:20  lr: 0.000001  loss: 2.7776  time: 5.1605  data: 0.0000  max mem: 23953
…
