…
adapter type output_adapter
adapter type output_adapter
adapter type output_adapter
adapter type output_adapter
adapter type output_adapter
adapter type output_adapter
adapter type output_adapter
adapter type output_adapter
adapter type output_adapter
adapter type output_adapter
adapter type output_adapter
adapter type output_adapter
BASE Model BottleneckModel(
  (model): PaliGemma_VQA(
    (model): PaliGemmaForConditionalGeneration(
      (vision_tower): SiglipVisionModel(
        (vision_model): SiglipVisionTransformer(
          (embeddings): SiglipVisionEmbeddings(
            (patch_embedding): Conv2d(3, 1152, kernel_size=(14, 14), stride=(14, 14), padding=valid)
            (position_embedding): Embedding(256, 1152)
          )
          (encoder): SiglipEncoder(
            (layers): ModuleList(
              (0-26): 27 x SiglipEncoderLayer(
                (self_attn): SiglipSdpaAttention(
                  (k_proj): Linear(
                    in_features=1152, out_features=1152, bias=True
                    (adapter_dropout): Dropout(p=0.1, inplace=False)
                    (adapter_down): Linear(in_features=1152, out_features=512, bias=False)
                    (adapter_up): Linear(in_features=512, out_features=1152, bias=False)
                    (act_fn): ReLU()
                  )
                  (v_proj): Linear(
                    in_features=1152, out_features=1152, bias=True
                    (adapter_dropout): Dropout(p=0.1, inplace=False)
                    (adapter_down): Linear(in_features=1152, out_features=512, bias=False)
                    (adapter_up): Linear(in_features=512, out_features=1152, bias=False)
                    (act_fn): ReLU()
                  )
                  (q_proj): Linear(
                    in_features=1152, out_features=1152, bias=True
                    (adapter_dropout): Dropout(p=0.1, inplace=False)
                    (adapter_down): Linear(in_features=1152, out_features=512, bias=False)
                    (adapter_up): Linear(in_features=512, out_features=1152, bias=False)
                    (act_fn): ReLU()
                  )
                  (out_proj): Linear(in_features=1152, out_features=1152, bias=True)
                )
                (layer_norm1): LayerNorm((1152,), eps=1e-06, elementwise_affine=True)
                (mlp): SiglipMLP(
                  (activation_fn): PytorchGELUTanh()
                  (fc1): Linear(in_features=1152, out_features=4304, bias=True)
                  (fc2): Linear(in_features=4304, out_features=1152, bias=True)
                )
                (layer_norm2): LayerNorm((1152,), eps=1e-06, elementwise_affine=True)
              )
            )
          )
          (post_layernorm): LayerNorm((1152,), eps=1e-06, elementwise_affine=True)
        )
      )
      (multi_modal_projector): PaliGemmaMultiModalProjector(
        (linear): Linear(in_features=1152, out_features=2048, bias=True)
      )
      (language_model): GemmaForCausalLM(
        (model): GemmaModel(
          (embed_tokens): Embedding(257216, 2048, padding_idx=0)
          (layers): ModuleList(
            (0-17): 18 x GemmaDecoderLayer(
              (self_attn): GemmaSdpaAttention(
                (q_proj): Linear(
                  in_features=2048, out_features=2048, bias=False
                  (adapter_dropout): Dropout(p=0.1, inplace=False)
                  (adapter_down): Linear(in_features=2048, out_features=512, bias=False)
                  (adapter_up): Linear(in_features=512, out_features=2048, bias=False)
                  (act_fn): ReLU()
                )
                (k_proj): Linear(
                  in_features=256, out_features=256, bias=False
                  (adapter_dropout): Dropout(p=0.1, inplace=False)
                  (adapter_down): Linear(in_features=256, out_features=512, bias=False)
                  (adapter_up): Linear(in_features=512, out_features=256, bias=False)
                  (act_fn): ReLU()
                )
                (v_proj): Linear(
                  in_features=256, out_features=256, bias=False
                  (adapter_dropout): Dropout(p=0.1, inplace=False)
                  (adapter_down): Linear(in_features=256, out_features=512, bias=False)
                  (adapter_up): Linear(in_features=512, out_features=256, bias=False)
                  (act_fn): ReLU()
                )
                (o_proj): Linear(
                  in_features=2048, out_features=2048, bias=False
                  (adapter_dropout): Dropout(p=0.1, inplace=False)
                  (adapter_down): Linear(in_features=2048, out_features=512, bias=False)
                  (adapter_up): Linear(in_features=512, out_features=2048, bias=False)
                  (act_fn): ReLU()
                )
                (rotary_emb): GemmaRotaryEmbedding()
              )
              (mlp): GemmaMLP(
                (gate_proj): Linear(in_features=2048, out_features=16384, bias=False)
                (up_proj): Linear(in_features=2048, out_features=16384, bias=False)
                (down_proj): Linear(in_features=16384, out_features=2048, bias=False)
                (act_fn): PytorchGELUTanh()
              )
              (input_layernorm): GemmaRMSNorm((2048,), eps=1e-06)
              (post_attention_layernorm): GemmaRMSNorm((2048,), eps=1e-06)
            )
          )
          (norm): GemmaRMSNorm((2048,), eps=1e-06)
        )
        (lm_head): Linear(in_features=2048, out_features=257216, bias=False)
      )
    )
  )
)
trainable params: 180486144 || all params: 3103952624 || trainable%: 5.814719677242084
PeftModelForCausalLM(
  (base_model): BottleneckModel(
    (model): PaliGemma_VQA(
      (model): PaliGemmaForConditionalGeneration(
        (vision_tower): SiglipVisionModel(
          (vision_model): SiglipVisionTransformer(
            (embeddings): SiglipVisionEmbeddings(
              (patch_embedding): Conv2d(3, 1152, kernel_size=(14, 14), stride=(14, 14), padding=valid)
              (position_embedding): Embedding(256, 1152)
            )
            (encoder): SiglipEncoder(
              (layers): ModuleList(
                (0-26): 27 x SiglipEncoderLayer(
                  (self_attn): SiglipSdpaAttention(
                    (k_proj): Linear(
                      in_features=1152, out_features=1152, bias=True
                      (adapter_dropout): Dropout(p=0.1, inplace=False)
                      (adapter_down): Linear(in_features=1152, out_features=512, bias=False)
                      (adapter_up): Linear(in_features=512, out_features=1152, bias=False)
                      (act_fn): ReLU()
                    )
                    (v_proj): Linear(
                      in_features=1152, out_features=1152, bias=True
                      (adapter_dropout): Dropout(p=0.1, inplace=False)
                      (adapter_down): Linear(in_features=1152, out_features=512, bias=False)
                      (adapter_up): Linear(in_features=512, out_features=1152, bias=False)
                      (act_fn): ReLU()
                    )
                    (q_proj): Linear(
                      in_features=1152, out_features=1152, bias=True
                      (adapter_dropout): Dropout(p=0.1, inplace=False)
                      (adapter_down): Linear(in_features=1152, out_features=512, bias=False)
                      (adapter_up): Linear(in_features=512, out_features=1152, bias=False)
                      (act_fn): ReLU()
                    )
                    (out_proj): Linear(in_features=1152, out_features=1152, bias=True)
                  )
                  (layer_norm1): LayerNorm((1152,), eps=1e-06, elementwise_affine=True)
                  (mlp): SiglipMLP(
                    (activation_fn): PytorchGELUTanh()
                    (fc1): Linear(in_features=1152, out_features=4304, bias=True)
                    (fc2): Linear(in_features=4304, out_features=1152, bias=True)
                  )
                  (layer_norm2): LayerNorm((1152,), eps=1e-06, elementwise_affine=True)
                )
              )
            )
            (post_layernorm): LayerNorm((1152,), eps=1e-06, elementwise_affine=True)
          )
        )
        (multi_modal_projector): PaliGemmaMultiModalProjector(
          (linear): Linear(in_features=1152, out_features=2048, bias=True)
        )
        (language_model): GemmaForCausalLM(
          (model): GemmaModel(
            (embed_tokens): Embedding(257216, 2048, padding_idx=0)
            (layers): ModuleList(
              (0-17): 18 x GemmaDecoderLayer(
                (self_attn): GemmaSdpaAttention(
                  (q_proj): Linear(
                    in_features=2048, out_features=2048, bias=False
                    (adapter_dropout): Dropout(p=0.1, inplace=False)
                    (adapter_down): Linear(in_features=2048, out_features=512, bias=False)
                    (adapter_up): Linear(in_features=512, out_features=2048, bias=False)
                    (act_fn): ReLU()
                  )
                  (k_proj): Linear(
                    in_features=256, out_features=256, bias=False
                    (adapter_dropout): Dropout(p=0.1, inplace=False)
                    (adapter_down): Linear(in_features=256, out_features=512, bias=False)
                    (adapter_up): Linear(in_features=512, out_features=256, bias=False)
                    (act_fn): ReLU()
                  )
                  (v_proj): Linear(
                    in_features=256, out_features=256, bias=False
                    (adapter_dropout): Dropout(p=0.1, inplace=False)
                    (adapter_down): Linear(in_features=256, out_features=512, bias=False)
                    (adapter_up): Linear(in_features=512, out_features=256, bias=False)
                    (act_fn): ReLU()
                  )
                  (o_proj): Linear(
                    in_features=2048, out_features=2048, bias=False
                    (adapter_dropout): Dropout(p=0.1, inplace=False)
                    (adapter_down): Linear(in_features=2048, out_features=512, bias=False)
                    (adapter_up): Linear(in_features=512, out_features=2048, bias=False)
                    (act_fn): ReLU()
                  )
                  (rotary_emb): GemmaRotaryEmbedding()
                )
                (mlp): GemmaMLP(
                  (gate_proj): Linear(in_features=2048, out_features=16384, bias=False)
                  (up_proj): Linear(in_features=2048, out_features=16384, bias=False)
                  (down_proj): Linear(in_features=16384, out_features=2048, bias=False)
                  (act_fn): PytorchGELUTanh()
                )
                (input_layernorm): GemmaRMSNorm((2048,), eps=1e-06)
                (post_attention_layernorm): GemmaRMSNorm((2048,), eps=1e-06)
              )
            )
            (norm): GemmaRMSNorm((2048,), eps=1e-06)
          )
          (lm_head): Linear(in_features=2048, out_features=257216, bias=False)
        )
      )
    )
  )
)
Final Model before runner PeftModelForCausalLM(
  (base_model): BottleneckModel(
    (model): PaliGemma_VQA(
      (model): PaliGemmaForConditionalGeneration(
        (vision_tower): SiglipVisionModel(
          (vision_model): SiglipVisionTransformer(
            (embeddings): SiglipVisionEmbeddings(
              (patch_embedding): Conv2d(3, 1152, kernel_size=(14, 14), stride=(14, 14), padding=valid)
              (position_embedding): Embedding(256, 1152)
            )
            (encoder): SiglipEncoder(
              (layers): ModuleList(
                (0-26): 27 x SiglipEncoderLayer(
                  (self_attn): SiglipSdpaAttention(
                    (k_proj): Linear(
                      in_features=1152, out_features=1152, bias=True
                      (adapter_dropout): Dropout(p=0.1, inplace=False)
                      (adapter_down): Linear(in_features=1152, out_features=512, bias=False)
                      (adapter_up): Linear(in_features=512, out_features=1152, bias=False)
                      (act_fn): ReLU()
                    )
                    (v_proj): Linear(
                      in_features=1152, out_features=1152, bias=True
                      (adapter_dropout): Dropout(p=0.1, inplace=False)
                      (adapter_down): Linear(in_features=1152, out_features=512, bias=False)
                      (adapter_up): Linear(in_features=512, out_features=1152, bias=False)
                      (act_fn): ReLU()
                    )
                    (q_proj): Linear(
                      in_features=1152, out_features=1152, bias=True
                      (adapter_dropout): Dropout(p=0.1, inplace=False)
                      (adapter_down): Linear(in_features=1152, out_features=512, bias=False)
                      (adapter_up): Linear(in_features=512, out_features=1152, bias=False)
                      (act_fn): ReLU()
                    )
                    (out_proj): Linear(in_features=1152, out_features=1152, bias=True)
                  )
                  (layer_norm1): LayerNorm((1152,), eps=1e-06, elementwise_affine=True)
                  (mlp): SiglipMLP(
                    (activation_fn): PytorchGELUTanh()
                    (fc1): Linear(in_features=1152, out_features=4304, bias=True)
                    (fc2): Linear(in_features=4304, out_features=1152, bias=True)
                  )
                  (layer_norm2): LayerNorm((1152,), eps=1e-06, elementwise_affine=True)
                )
              )
            )
            (post_layernorm): LayerNorm((1152,), eps=1e-06, elementwise_affine=True)
          )
        )
        (multi_modal_projector): PaliGemmaMultiModalProjector(
          (linear): Linear(in_features=1152, out_features=2048, bias=True)
        )
        (language_model): GemmaForCausalLM(
          (model): GemmaModel(
            (embed_tokens): Embedding(257216, 2048, padding_idx=0)
            (layers): ModuleList(
              (0-17): 18 x GemmaDecoderLayer(
                (self_attn): GemmaSdpaAttention(
                  (q_proj): Linear(
                    in_features=2048, out_features=2048, bias=False
                    (adapter_dropout): Dropout(p=0.1, inplace=False)
                    (adapter_down): Linear(in_features=2048, out_features=512, bias=False)
                    (adapter_up): Linear(in_features=512, out_features=2048, bias=False)
                    (act_fn): ReLU()
                  )
                  (k_proj): Linear(
                    in_features=256, out_features=256, bias=False
                    (adapter_dropout): Dropout(p=0.1, inplace=False)
                    (adapter_down): Linear(in_features=256, out_features=512, bias=False)
                    (adapter_up): Linear(in_features=512, out_features=256, bias=False)
                    (act_fn): ReLU()
                  )
                  (v_proj): Linear(
                    in_features=256, out_features=256, bias=False
                    (adapter_dropout): Dropout(p=0.1, inplace=False)
                    (adapter_down): Linear(in_features=256, out_features=512, bias=False)
                    (adapter_up): Linear(in_features=512, out_features=256, bias=False)
                    (act_fn): ReLU()
                  )
                  (o_proj): Linear(
                    in_features=2048, out_features=2048, bias=False
                    (adapter_dropout): Dropout(p=0.1, inplace=False)
                    (adapter_down): Linear(in_features=2048, out_features=512, bias=False)
                    (adapter_up): Linear(in_features=512, out_features=2048, bias=False)
                    (act_fn): ReLU()
                  )
                  (rotary_emb): GemmaRotaryEmbedding()
                )
                (mlp): GemmaMLP(
                  (gate_proj): Linear(in_features=2048, out_features=16384, bias=False)
                  (up_proj): Linear(in_features=2048, out_features=16384, bias=False)
                  (down_proj): Linear(in_features=16384, out_features=2048, bias=False)
                  (act_fn): PytorchGELUTanh()
                )
                (input_layernorm): GemmaRMSNorm((2048,), eps=1e-06)
                (post_attention_layernorm): GemmaRMSNorm((2048,), eps=1e-06)
              )
            )
            (norm): GemmaRMSNorm((2048,), eps=1e-06)
          )
          (lm_head): Linear(in_features=2048, out_features=257216, bias=False)
        )
      )
    )
  )
)
and it's device cuda:0
Device check cuda:0 cuda
DistributedDataParallel(
  (module): PeftModelForCausalLM(
    (base_model): BottleneckModel(
      (model): PaliGemma_VQA(
        (model): PaliGemmaForConditionalGeneration(
          (vision_tower): SiglipVisionModel(
            (vision_model): SiglipVisionTransformer(
              (embeddings): SiglipVisionEmbeddings(
                (patch_embedding): Conv2d(3, 1152, kernel_size=(14, 14), stride=(14, 14), padding=valid)
                (position_embedding): Embedding(256, 1152)
              )
              (encoder): SiglipEncoder(
                (layers): ModuleList(
                  (0-26): 27 x SiglipEncoderLayer(
                    (self_attn): SiglipSdpaAttention(
                      (k_proj): Linear(
                        in_features=1152, out_features=1152, bias=True
                        (adapter_dropout): Dropout(p=0.1, inplace=False)
                        (adapter_down): Linear(in_features=1152, out_features=512, bias=False)
                        (adapter_up): Linear(in_features=512, out_features=1152, bias=False)
                        (act_fn): ReLU()
                      )
                      (v_proj): Linear(
                        in_features=1152, out_features=1152, bias=True
                        (adapter_dropout): Dropout(p=0.1, inplace=False)
                        (adapter_down): Linear(in_features=1152, out_features=512, bias=False)
                        (adapter_up): Linear(in_features=512, out_features=1152, bias=False)
                        (act_fn): ReLU()
                      )
                      (q_proj): Linear(
                        in_features=1152, out_features=1152, bias=True
                        (adapter_dropout): Dropout(p=0.1, inplace=False)
                        (adapter_down): Linear(in_features=1152, out_features=512, bias=False)
                        (adapter_up): Linear(in_features=512, out_features=1152, bias=False)
                        (act_fn): ReLU()
                      )
                      (out_proj): Linear(in_features=1152, out_features=1152, bias=True)
                    )
                    (layer_norm1): LayerNorm((1152,), eps=1e-06, elementwise_affine=True)
                    (mlp): SiglipMLP(
                      (activation_fn): PytorchGELUTanh()
                      (fc1): Linear(in_features=1152, out_features=4304, bias=True)
                      (fc2): Linear(in_features=4304, out_features=1152, bias=True)
                    )
                    (layer_norm2): LayerNorm((1152,), eps=1e-06, elementwise_affine=True)
                  )
                )
              )
              (post_layernorm): LayerNorm((1152,), eps=1e-06, elementwise_affine=True)
            )
          )
          (multi_modal_projector): PaliGemmaMultiModalProjector(
            (linear): Linear(in_features=1152, out_features=2048, bias=True)
          )
          (language_model): GemmaForCausalLM(
            (model): GemmaModel(
              (embed_tokens): Embedding(257216, 2048, padding_idx=0)
              (layers): ModuleList(
                (0-17): 18 x GemmaDecoderLayer(
                  (self_attn): GemmaSdpaAttention(
                    (q_proj): Linear(
                      in_features=2048, out_features=2048, bias=False
                      (adapter_dropout): Dropout(p=0.1, inplace=False)
                      (adapter_down): Linear(in_features=2048, out_features=512, bias=False)
                      (adapter_up): Linear(in_features=512, out_features=2048, bias=False)
                      (act_fn): ReLU()
                    )
                    (k_proj): Linear(
                      in_features=256, out_features=256, bias=False
                      (adapter_dropout): Dropout(p=0.1, inplace=False)
                      (adapter_down): Linear(in_features=256, out_features=512, bias=False)
                      (adapter_up): Linear(in_features=512, out_features=256, bias=False)
                      (act_fn): ReLU()
                    )
                    (v_proj): Linear(
                      in_features=256, out_features=256, bias=False
                      (adapter_dropout): Dropout(p=0.1, inplace=False)
                      (adapter_down): Linear(in_features=256, out_features=512, bias=False)
                      (adapter_up): Linear(in_features=512, out_features=256, bias=False)
                      (act_fn): ReLU()
                    )
                    (o_proj): Linear(
                      in_features=2048, out_features=2048, bias=False
                      (adapter_dropout): Dropout(p=0.1, inplace=False)
                      (adapter_down): Linear(in_features=2048, out_features=512, bias=False)
                      (adapter_up): Linear(in_features=512, out_features=2048, bias=False)
                      (act_fn): ReLU()
                    )
                    (rotary_emb): GemmaRotaryEmbedding()
                  )
                  (mlp): GemmaMLP(
                    (gate_proj): Linear(in_features=2048, out_features=16384, bias=False)
                    (up_proj): Linear(in_features=2048, out_features=16384, bias=False)
                    (down_proj): Linear(in_features=16384, out_features=2048, bias=False)
                    (act_fn): PytorchGELUTanh()
                  )
                  (input_layernorm): GemmaRMSNorm((2048,), eps=1e-06)
                  (post_attention_layernorm): GemmaRMSNorm((2048,), eps=1e-06)
                )
              )
              (norm): GemmaRMSNorm((2048,), eps=1e-06)
            )
            (lm_head): Linear(in_features=2048, out_features=257216, bias=False)
          )
        )
      )
    )
  )
)
DistributedDataParallel(
  (module): PeftModelForCausalLM(
    (base_model): BottleneckModel(
      (model): PaliGemma_VQA(
        (model): PaliGemmaForConditionalGeneration(
          (vision_tower): SiglipVisionModel(
            (vision_model): SiglipVisionTransformer(
              (embeddings): SiglipVisionEmbeddings(
                (patch_embedding): Conv2d(3, 1152, kernel_size=(14, 14), stride=(14, 14), padding=valid)
                (position_embedding): Embedding(256, 1152)
              )
              (encoder): SiglipEncoder(
                (layers): ModuleList(
                  (0-26): 27 x SiglipEncoderLayer(
                    (self_attn): SiglipSdpaAttention(
                      (k_proj): Linear(
                        in_features=1152, out_features=1152, bias=True
                        (adapter_dropout): Dropout(p=0.1, inplace=False)
                        (adapter_down): Linear(in_features=1152, out_features=512, bias=False)
                        (adapter_up): Linear(in_features=512, out_features=1152, bias=False)
                        (act_fn): ReLU()
                      )
                      (v_proj): Linear(
                        in_features=1152, out_features=1152, bias=True
                        (adapter_dropout): Dropout(p=0.1, inplace=False)
                        (adapter_down): Linear(in_features=1152, out_features=512, bias=False)
                        (adapter_up): Linear(in_features=512, out_features=1152, bias=False)
                        (act_fn): ReLU()
                      )
                      (q_proj): Linear(
                        in_features=1152, out_features=1152, bias=True
                        (adapter_dropout): Dropout(p=0.1, inplace=False)
                        (adapter_down): Linear(in_features=1152, out_features=512, bias=False)
                        (adapter_up): Linear(in_features=512, out_features=1152, bias=False)
                        (act_fn): ReLU()
                      )
                      (out_proj): Linear(in_features=1152, out_features=1152, bias=True)
                    )
                    (layer_norm1): LayerNorm((1152,), eps=1e-06, elementwise_affine=True)
                    (mlp): SiglipMLP(
                      (activation_fn): PytorchGELUTanh()
                      (fc1): Linear(in_features=1152, out_features=4304, bias=True)
                      (fc2): Linear(in_features=4304, out_features=1152, bias=True)
                    )
                    (layer_norm2): LayerNorm((1152,), eps=1e-06, elementwise_affine=True)
                  )
                )
              )
              (post_layernorm): LayerNorm((1152,), eps=1e-06, elementwise_affine=True)
            )
          )
          (multi_modal_projector): PaliGemmaMultiModalProjector(
            (linear): Linear(in_features=1152, out_features=2048, bias=True)
          )
          (language_model): GemmaForCausalLM(
            (model): GemmaModel(
              (embed_tokens): Embedding(257216, 2048, padding_idx=0)
              (layers): ModuleList(
                (0-17): 18 x GemmaDecoderLayer(
                  (self_attn): GemmaSdpaAttention(
                    (q_proj): Linear(
                      in_features=2048, out_features=2048, bias=False
                      (adapter_dropout): Dropout(p=0.1, inplace=False)
                      (adapter_down): Linear(in_features=2048, out_features=512, bias=False)
                      (adapter_up): Linear(in_features=512, out_features=2048, bias=False)
                      (act_fn): ReLU()
                    )
                    (k_proj): Linear(
                      in_features=256, out_features=256, bias=False
                      (adapter_dropout): Dropout(p=0.1, inplace=False)
                      (adapter_down): Linear(in_features=256, out_features=512, bias=False)
                      (adapter_up): Linear(in_features=512, out_features=256, bias=False)
                      (act_fn): ReLU()
                    )
                    (v_proj): Linear(
                      in_features=256, out_features=256, bias=False
                      (adapter_dropout): Dropout(p=0.1, inplace=False)
                      (adapter_down): Linear(in_features=256, out_features=512, bias=False)
                      (adapter_up): Linear(in_features=512, out_features=256, bias=False)
                      (act_fn): ReLU()
                    )
                    (o_proj): Linear(
                      in_features=2048, out_features=2048, bias=False
                      (adapter_dropout): Dropout(p=0.1, inplace=False)
                      (adapter_down): Linear(in_features=2048, out_features=512, bias=False)
                      (adapter_up): Linear(in_features=512, out_features=2048, bias=False)
                      (act_fn): ReLU()
                    )
                    (rotary_emb): GemmaRotaryEmbedding()
                  )
                  (mlp): GemmaMLP(
                    (gate_proj): Linear(in_features=2048, out_features=16384, bias=False)
                    (up_proj): Linear(in_features=2048, out_features=16384, bias=False)
                    (down_proj): Linear(in_features=16384, out_features=2048, bias=False)
                    (act_fn): PytorchGELUTanh()
                  )
                  (input_layernorm): GemmaRMSNorm((2048,), eps=1e-06)
                  (post_attention_layernorm): GemmaRMSNorm((2048,), eps=1e-06)
                )
              )
              (norm): GemmaRMSNorm((2048,), eps=1e-06)
            )
            (lm_head): Linear(in_features=2048, out_features=257216, bias=False)
          )
        )
      )
    )
  )
)
Device check cuda:0 cuda
DistributedDataParallel(
  (module): PeftModelForCausalLM(
    (base_model): BottleneckModel(
      (model): PaliGemma_VQA(
        (model): PaliGemmaForConditionalGeneration(
          (vision_tower): SiglipVisionModel(
            (vision_model): SiglipVisionTransformer(
              (embeddings): SiglipVisionEmbeddings(
                (patch_embedding): Conv2d(3, 1152, kernel_size=(14, 14), stride=(14, 14), padding=valid)
                (position_embedding): Embedding(256, 1152)
              )
              (encoder): SiglipEncoder(
                (layers): ModuleList(
                  (0-26): 27 x SiglipEncoderLayer(
                    (self_attn): SiglipSdpaAttention(
                      (k_proj): Linear(
                        in_features=1152, out_features=1152, bias=True
                        (adapter_dropout): Dropout(p=0.1, inplace=False)
                        (adapter_down): Linear(in_features=1152, out_features=512, bias=False)
                        (adapter_up): Linear(in_features=512, out_features=1152, bias=False)
                        (act_fn): ReLU()
                      )
                      (v_proj): Linear(
                        in_features=1152, out_features=1152, bias=True
                        (adapter_dropout): Dropout(p=0.1, inplace=False)
                        (adapter_down): Linear(in_features=1152, out_features=512, bias=False)
                        (adapter_up): Linear(in_features=512, out_features=1152, bias=False)
                        (act_fn): ReLU()
                      )
                      (q_proj): Linear(
                        in_features=1152, out_features=1152, bias=True
                        (adapter_dropout): Dropout(p=0.1, inplace=False)
                        (adapter_down): Linear(in_features=1152, out_features=512, bias=False)
                        (adapter_up): Linear(in_features=512, out_features=1152, bias=False)
                        (act_fn): ReLU()
                      )
                      (out_proj): Linear(in_features=1152, out_features=1152, bias=True)
                    )
                    (layer_norm1): LayerNorm((1152,), eps=1e-06, elementwise_affine=True)
                    (mlp): SiglipMLP(
                      (activation_fn): PytorchGELUTanh()
                      (fc1): Linear(in_features=1152, out_features=4304, bias=True)
                      (fc2): Linear(in_features=4304, out_features=1152, bias=True)
                    )
                    (layer_norm2): LayerNorm((1152,), eps=1e-06, elementwise_affine=True)
                  )
                )
              )
              (post_layernorm): LayerNorm((1152,), eps=1e-06, elementwise_affine=True)
            )
          )
          (multi_modal_projector): PaliGemmaMultiModalProjector(
            (linear): Linear(in_features=1152, out_features=2048, bias=True)
          )
          (language_model): GemmaForCausalLM(
            (model): GemmaModel(
              (embed_tokens): Embedding(257216, 2048, padding_idx=0)
              (layers): ModuleList(
                (0-17): 18 x GemmaDecoderLayer(
                  (self_attn): GemmaSdpaAttention(
                    (q_proj): Linear(
                      in_features=2048, out_features=2048, bias=False
                      (adapter_dropout): Dropout(p=0.1, inplace=False)
                      (adapter_down): Linear(in_features=2048, out_features=512, bias=False)
                      (adapter_up): Linear(in_features=512, out_features=2048, bias=False)
                      (act_fn): ReLU()
                    )
                    (k_proj): Linear(
                      in_features=256, out_features=256, bias=False
                      (adapter_dropout): Dropout(p=0.1, inplace=False)
                      (adapter_down): Linear(in_features=256, out_features=512, bias=False)
                      (adapter_up): Linear(in_features=512, out_features=256, bias=False)
                      (act_fn): ReLU()
                    )
                    (v_proj): Linear(
                      in_features=256, out_features=256, bias=False
                      (adapter_dropout): Dropout(p=0.1, inplace=False)
                      (adapter_down): Linear(in_features=256, out_features=512, bias=False)
                      (adapter_up): Linear(in_features=512, out_features=256, bias=False)
                      (act_fn): ReLU()
                    )
                    (o_proj): Linear(
                      in_features=2048, out_features=2048, bias=False
                      (adapter_dropout): Dropout(p=0.1, inplace=False)
                      (adapter_down): Linear(in_features=2048, out_features=512, bias=False)
                      (adapter_up): Linear(in_features=512, out_features=2048, bias=False)
                      (act_fn): ReLU()
                    )
                    (rotary_emb): GemmaRotaryEmbedding()
                  )
                  (mlp): GemmaMLP(
                    (gate_proj): Linear(in_features=2048, out_features=16384, bias=False)
                    (up_proj): Linear(in_features=2048, out_features=16384, bias=False)
                    (down_proj): Linear(in_features=16384, out_features=2048, bias=False)
                    (act_fn): PytorchGELUTanh()
                  )
                  (input_layernorm): GemmaRMSNorm((2048,), eps=1e-06)
                  (post_attention_layernorm): GemmaRMSNorm((2048,), eps=1e-06)
                )
              )
              (norm): GemmaRMSNorm((2048,), eps=1e-06)
            )
            (lm_head): Linear(in_features=2048, out_features=257216, bias=False)
          )
        )
      )
    )
  )
)
Device check cuda:0 cuda
DistributedDataParallel(
  (module): PeftModelForCausalLM(
    (base_model): BottleneckModel(
      (model): PaliGemma_VQA(
        (model): PaliGemmaForConditionalGeneration(
          (vision_tower): SiglipVisionModel(
            (vision_model): SiglipVisionTransformer(
              (embeddings): SiglipVisionEmbeddings(
                (patch_embedding): Conv2d(3, 1152, kernel_size=(14, 14), stride=(14, 14), padding=valid)
                (position_embedding): Embedding(256, 1152)
              )
              (encoder): SiglipEncoder(
                (layers): ModuleList(
                  (0-26): 27 x SiglipEncoderLayer(
                    (self_attn): SiglipSdpaAttention(
                      (k_proj): Linear(
                        in_features=1152, out_features=1152, bias=True
                        (adapter_dropout): Dropout(p=0.1, inplace=False)
                        (adapter_down): Linear(in_features=1152, out_features=512, bias=False)
                        (adapter_up): Linear(in_features=512, out_features=1152, bias=False)
                        (act_fn): ReLU()
                      )
                      (v_proj): Linear(
                        in_features=1152, out_features=1152, bias=True
                        (adapter_dropout): Dropout(p=0.1, inplace=False)
                        (adapter_down): Linear(in_features=1152, out_features=512, bias=False)
                        (adapter_up): Linear(in_features=512, out_features=1152, bias=False)
                        (act_fn): ReLU()
                      )
                      (q_proj): Linear(
                        in_features=1152, out_features=1152, bias=True
                        (adapter_dropout): Dropout(p=0.1, inplace=False)
                        (adapter_down): Linear(in_features=1152, out_features=512, bias=False)
                        (adapter_up): Linear(in_features=512, out_features=1152, bias=False)
                        (act_fn): ReLU()
                      )
                      (out_proj): Linear(in_features=1152, out_features=1152, bias=True)
                    )
                    (layer_norm1): LayerNorm((1152,), eps=1e-06, elementwise_affine=True)
                    (mlp): SiglipMLP(
                      (activation_fn): PytorchGELUTanh()
                      (fc1): Linear(in_features=1152, out_features=4304, bias=True)
                      (fc2): Linear(in_features=4304, out_features=1152, bias=True)
                    )
                    (layer_norm2): LayerNorm((1152,), eps=1e-06, elementwise_affine=True)
                  )
                )
              )
              (post_layernorm): LayerNorm((1152,), eps=1e-06, elementwise_affine=True)
            )
          )
          (multi_modal_projector): PaliGemmaMultiModalProjector(
            (linear): Linear(in_features=1152, out_features=2048, bias=True)
          )
          (language_model): GemmaForCausalLM(
            (model): GemmaModel(
              (embed_tokens): Embedding(257216, 2048, padding_idx=0)
              (layers): ModuleList(
                (0-17): 18 x GemmaDecoderLayer(
                  (self_attn): GemmaSdpaAttention(
                    (q_proj): Linear(
                      in_features=2048, out_features=2048, bias=False
                      (adapter_dropout): Dropout(p=0.1, inplace=False)
                      (adapter_down): Linear(in_features=2048, out_features=512, bias=False)
                      (adapter_up): Linear(in_features=512, out_features=2048, bias=False)
                      (act_fn): ReLU()
                    )
                    (k_proj): Linear(
                      in_features=256, out_features=256, bias=False
                      (adapter_dropout): Dropout(p=0.1, inplace=False)
                      (adapter_down): Linear(in_features=256, out_features=512, bias=False)
                      (adapter_up): Linear(in_features=512, out_features=256, bias=False)
                      (act_fn): ReLU()
                    )
                    (v_proj): Linear(
                      in_features=256, out_features=256, bias=False
                      (adapter_dropout): Dropout(p=0.1, inplace=False)
                      (adapter_down): Linear(in_features=256, out_features=512, bias=False)
                      (adapter_up): Linear(in_features=512, out_features=256, bias=False)
                      (act_fn): ReLU()
                    )
                    (o_proj): Linear(
                      in_features=2048, out_features=2048, bias=False
                      (adapter_dropout): Dropout(p=0.1, inplace=False)
                      (adapter_down): Linear(in_features=2048, out_features=512, bias=False)
                      (adapter_up): Linear(in_features=512, out_features=2048, bias=False)
                      (act_fn): ReLU()
                    )
                    (rotary_emb): GemmaRotaryEmbedding()
                  )
                  (mlp): GemmaMLP(
                    (gate_proj): Linear(in_features=2048, out_features=16384, bias=False)
                    (up_proj): Linear(in_features=2048, out_features=16384, bias=False)
                    (down_proj): Linear(in_features=16384, out_features=2048, bias=False)
                    (act_fn): PytorchGELUTanh()
                  )
                  (input_layernorm): GemmaRMSNorm((2048,), eps=1e-06)
                  (post_attention_layernorm): GemmaRMSNorm((2048,), eps=1e-06)
                )
              )
              (norm): GemmaRMSNorm((2048,), eps=1e-06)
            )
            (lm_head): Linear(in_features=2048, out_features=257216, bias=False)
          )
        )
      )
    )
  )
)
optimizer:  AdamW (
Parameter Group 0
    amsgrad: False
    betas: (0.9, 0.999)
    capturable: False
    differentiable: False
    eps: 1e-08
    foreach: None
    fused: None
    lr: 1e-05
    maximize: False
    weight_decay: 1e-06
)
Train: data epoch: [0]  [    0/10282]  eta: 12:47:42  lr: 0.000001  loss: 1.1463  time: 4.4800  data: 0.0000  max mem: 21963
…
Train: data epoch: [0]  [10250/10282]  eta: 0:01:11  lr: 0.000010  loss: 0.2314  time: 2.2283  data: 0.0000  max mem: 24659
Train: data epoch: [0]  [10281/10282]  eta: 0:00:02  lr: 0.000010  loss: 0.2053  time: 2.3962  data: 0.0000  max mem: 24659
Train: data epoch: [0] Total time: 6:23:10 (2.2360 s / it)
Device check cuda:0 cuda
DistributedDataParallel(
  (module): PeftModelForCausalLM(
    (base_model): BottleneckModel(
      (model): PaliGemma_VQA(
        (model): PaliGemmaForConditionalGeneration(
          (vision_tower): SiglipVisionModel(
            (vision_model): SiglipVisionTransformer(
              (embeddings): SiglipVisionEmbeddings(
                (patch_embedding): Conv2d(3, 1152, kernel_size=(14, 14), stride=(14, 14), padding=valid)
                (position_embedding): Embedding(256, 1152)
              )
              (encoder): SiglipEncoder(
                (layers): ModuleList(
                  (0-26): 27 x SiglipEncoderLayer(
                    (self_attn): SiglipSdpaAttention(
                      (k_proj): Linear(
                        in_features=1152, out_features=1152, bias=True
                        (adapter_dropout): Dropout(p=0.1, inplace=False)
                        (adapter_down): Linear(in_features=1152, out_features=512, bias=False)
                        (adapter_up): Linear(in_features=512, out_features=1152, bias=False)
                        (act_fn): ReLU()
                      )
                      (v_proj): Linear(
                        in_features=1152, out_features=1152, bias=True
                        (adapter_dropout): Dropout(p=0.1, inplace=False)
                        (adapter_down): Linear(in_features=1152, out_features=512, bias=False)
                        (adapter_up): Linear(in_features=512, out_features=1152, bias=False)
                        (act_fn): ReLU()
                      )
                      (q_proj): Linear(
                        in_features=1152, out_features=1152, bias=True
                        (adapter_dropout): Dropout(p=0.1, inplace=False)
                        (adapter_down): Linear(in_features=1152, out_features=512, bias=False)
                        (adapter_up): Linear(in_features=512, out_features=1152, bias=False)
                        (act_fn): ReLU()
                      )
                      (out_proj): Linear(in_features=1152, out_features=1152, bias=True)
                    )
                    (layer_norm1): LayerNorm((1152,), eps=1e-06, elementwise_affine=True)
                    (mlp): SiglipMLP(
                      (activation_fn): PytorchGELUTanh()
                      (fc1): Linear(in_features=1152, out_features=4304, bias=True)
                      (fc2): Linear(in_features=4304, out_features=1152, bias=True)
                    )
                    (layer_norm2): LayerNorm((1152,), eps=1e-06, elementwise_affine=True)
                  )
                )
              )
              (post_layernorm): LayerNorm((1152,), eps=1e-06, elementwise_affine=True)
            )
          )
          (multi_modal_projector): PaliGemmaMultiModalProjector(
            (linear): Linear(in_features=1152, out_features=2048, bias=True)
          )
          (language_model): GemmaForCausalLM(
            (model): GemmaModel(
              (embed_tokens): Embedding(257216, 2048, padding_idx=0)
              (layers): ModuleList(
                (0-17): 18 x GemmaDecoderLayer(
                  (self_attn): GemmaSdpaAttention(
                    (q_proj): Linear(
                      in_features=2048, out_features=2048, bias=False
                      (adapter_dropout): Dropout(p=0.1, inplace=False)
                      (adapter_down): Linear(in_features=2048, out_features=512, bias=False)
                      (adapter_up): Linear(in_features=512, out_features=2048, bias=False)
                      (act_fn): ReLU()
                    )
                    (k_proj): Linear(
                      in_features=256, out_features=256, bias=False
                      (adapter_dropout): Dropout(p=0.1, inplace=False)
                      (adapter_down): Linear(in_features=256, out_features=512, bias=False)
                      (adapter_up): Linear(in_features=512, out_features=256, bias=False)
                      (act_fn): ReLU()
                    )
                    (v_proj): Linear(
                      in_features=256, out_features=256, bias=False
                      (adapter_dropout): Dropout(p=0.1, inplace=False)
                      (adapter_down): Linear(in_features=256, out_features=512, bias=False)
                      (adapter_up): Linear(in_features=512, out_features=256, bias=False)
                      (act_fn): ReLU()
                    )
                    (o_proj): Linear(
                      in_features=2048, out_features=2048, bias=False
                      (adapter_dropout): Dropout(p=0.1, inplace=False)
                      (adapter_down): Linear(in_features=2048, out_features=512, bias=False)
                      (adapter_up): Linear(in_features=512, out_features=2048, bias=False)
                      (act_fn): ReLU()
                    )
                    (rotary_emb): GemmaRotaryEmbedding()
                  )
                  (mlp): GemmaMLP(
                    (gate_proj): Linear(in_features=2048, out_features=16384, bias=False)
                    (up_proj): Linear(in_features=2048, out_features=16384, bias=False)
                    (down_proj): Linear(in_features=16384, out_features=2048, bias=False)
                    (act_fn): PytorchGELUTanh()
                  )
                  (input_layernorm): GemmaRMSNorm((2048,), eps=1e-06)
                  (post_attention_layernorm): GemmaRMSNorm((2048,), eps=1e-06)
                )
              )
              (norm): GemmaRMSNorm((2048,), eps=1e-06)
            )
            (lm_head): Linear(in_features=2048, out_features=257216, bias=False)
          )
        )
      )
    )
  )
)
Evaluation  [   0/1675]  eta: 1:04:12    time: 2.3002  data: 0.6251  max mem: 24659
Evaluation  [  10/1675]  eta: 0:29:33    time: 1.0653  data: 0.0571  max mem: 24659
Evaluation  [  20/1675]  eta: 0:28:01    time: 0.9519  data: 0.0003  max mem: 24659
Evaluation  [  30/1675]  eta: 0:28:56    time: 1.0500  data: 0.0003  max mem: 24659
…
#######] 99% Finshed Percent: [####################] 99% Finshed Percent: [####################] 99% Finshed Percent: [####################] 99% Finshed Percent: [####################] 99% Done computing accuracy
Device check cuda:0 cuda
DistributedDataParallel(
  (module): PeftModelForCausalLM(
    (base_model): BottleneckModel(
      (model): PaliGemma_VQA(
        (model): PaliGemmaForConditionalGeneration(
          (vision_tower): SiglipVisionModel(
            (vision_model): SiglipVisionTransformer(
              (embeddings): SiglipVisionEmbeddings(
                (patch_embedding): Conv2d(3, 1152, kernel_size=(14, 14), stride=(14, 14), padding=valid)
                (position_embedding): Embedding(256, 1152)
              )
              (encoder): SiglipEncoder(
                (layers): ModuleList(
                  (0-26): 27 x SiglipEncoderLayer(
                    (self_attn): SiglipSdpaAttention(
                      (k_proj): Linear(
                        in_features=1152, out_features=1152, bias=True
                        (adapter_dropout): Dropout(p=0.1, inplace=False)
                        (adapter_down): Linear(in_features=1152, out_features=512, bias=False)
                        (adapter_up): Linear(in_features=512, out_features=1152, bias=False)
                        (act_fn): ReLU()
                      )
                      (v_proj): Linear(
                        in_features=1152, out_features=1152, bias=True
                        (adapter_dropout): Dropout(p=0.1, inplace=False)
                        (adapter_down): Linear(in_features=1152, out_features=512, bias=False)
                        (adapter_up): Linear(in_features=512, out_features=1152, bias=False)
                        (act_fn): ReLU()
                      )
                      (q_proj): Linear(
                        in_features=1152, out_features=1152, bias=True
                        (adapter_dropout): Dropout(p=0.1, inplace=False)
                        (adapter_down): Linear(in_features=1152, out_features=512, bias=False)
                        (adapter_up): Linear(in_features=512, out_features=1152, bias=False)
                        (act_fn): ReLU()
                      )
                      (out_proj): Linear(in_features=1152, out_features=1152, bias=True)
                    )
                    (layer_norm1): LayerNorm((1152,), eps=1e-06, elementwise_affine=True)
                    (mlp): SiglipMLP(
                      (activation_fn): PytorchGELUTanh()
                      (fc1): Linear(in_features=1152, out_features=4304, bias=True)
                      (fc2): Linear(in_features=4304, out_features=1152, bias=True)
                    )
                    (layer_norm2): LayerNorm((1152,), eps=1e-06, elementwise_affine=True)
                  )
                )
              )
              (post_layernorm): LayerNorm((1152,), eps=1e-06, elementwise_affine=True)
            )
          )
          (multi_modal_projector): PaliGemmaMultiModalProjector(
            (linear): Linear(in_features=1152, out_features=2048, bias=True)
          )
          (language_model): GemmaForCausalLM(
            (model): GemmaModel(
              (embed_tokens): Embedding(257216, 2048, padding_idx=0)
              (layers): ModuleList(
                (0-17): 18 x GemmaDecoderLayer(
                  (self_attn): GemmaSdpaAttention(
                    (q_proj): Linear(
                      in_features=2048, out_features=2048, bias=False
                      (adapter_dropout): Dropout(p=0.1, inplace=False)
                      (adapter_down): Linear(in_features=2048, out_features=512, bias=False)
                      (adapter_up): Linear(in_features=512, out_features=2048, bias=False)
                      (act_fn): ReLU()
                    )
                    (k_proj): Linear(
                      in_features=256, out_features=256, bias=False
                      (adapter_dropout): Dropout(p=0.1, inplace=False)
                      (adapter_down): Linear(in_features=256, out_features=512, bias=False)
                      (adapter_up): Linear(in_features=512, out_features=256, bias=False)
                      (act_fn): ReLU()
                    )
                    (v_proj): Linear(
                      in_features=256, out_features=256, bias=False
                      (adapter_dropout): Dropout(p=0.1, inplace=False)
                      (adapter_down): Linear(in_features=256, out_features=512, bias=False)
                      (adapter_up): Linear(in_features=512, out_features=256, bias=False)
                      (act_fn): ReLU()
                    )
                    (o_proj): Linear(
                      in_features=2048, out_features=2048, bias=False
                      (adapter_dropout): Dropout(p=0.1, inplace=False)
                      (adapter_down): Linear(in_features=2048, out_features=512, bias=False)
                      (adapter_up): Linear(in_features=512, out_features=2048, bias=False)
                      (act_fn): ReLU()
                    )
                    (rotary_emb): GemmaRotaryEmbedding()
                  )
                  (mlp): GemmaMLP(
                    (gate_proj): Linear(in_features=2048, out_features=16384, bias=False)
                    (up_proj): Linear(in_features=2048, out_features=16384, bias=False)
                    (down_proj): Linear(in_features=16384, out_features=2048, bias=False)
                    (act_fn): PytorchGELUTanh()
                  )
                  (input_layernorm): GemmaRMSNorm((2048,), eps=1e-06)
                  (post_attention_layernorm): GemmaRMSNorm((2048,), eps=1e-06)
                )
              )
              (norm): GemmaRMSNorm((2048,), eps=1e-06)
            )
            (lm_head): Linear(in_features=2048, out_features=257216, bias=False)
          )
        )
      )
    )
  )
)
Device check cuda:0 cuda
DistributedDataParallel(
  (module): PeftModelForCausalLM(
    (base_model): BottleneckModel(
      (model): PaliGemma_VQA(
        (model): PaliGemmaForConditionalGeneration(
          (vision_tower): SiglipVisionModel(
            (vision_model): SiglipVisionTransformer(
              (embeddings): SiglipVisionEmbeddings(
                (patch_embedding): Conv2d(3, 1152, kernel_size=(14, 14), stride=(14, 14), padding=valid)
                (position_embedding): Embedding(256, 1152)
              )
              (encoder): SiglipEncoder(
                (layers): ModuleList(
                  (0-26): 27 x SiglipEncoderLayer(
                    (self_attn): SiglipSdpaAttention(
                      (k_proj): Linear(
                        in_features=1152, out_features=1152, bias=True
                        (adapter_dropout): Dropout(p=0.1, inplace=False)
                        (adapter_down): Linear(in_features=1152, out_features=512, bias=False)
                        (adapter_up): Linear(in_features=512, out_features=1152, bias=False)
                        (act_fn): ReLU()
                      )
                      (v_proj): Linear(
                        in_features=1152, out_features=1152, bias=True
                        (adapter_dropout): Dropout(p=0.1, inplace=False)
                        (adapter_down): Linear(in_features=1152, out_features=512, bias=False)
                        (adapter_up): Linear(in_features=512, out_features=1152, bias=False)
                        (act_fn): ReLU()
                      )
                      (q_proj): Linear(
                        in_features=1152, out_features=1152, bias=True
                        (adapter_dropout): Dropout(p=0.1, inplace=False)
                        (adapter_down): Linear(in_features=1152, out_features=512, bias=False)
                        (adapter_up): Linear(in_features=512, out_features=1152, bias=False)
                        (act_fn): ReLU()
                      )
                      (out_proj): Linear(in_features=1152, out_features=1152, bias=True)
                    )
                    (layer_norm1): LayerNorm((1152,), eps=1e-06, elementwise_affine=True)
                    (mlp): SiglipMLP(
                      (activation_fn): PytorchGELUTanh()
                      (fc1): Linear(in_features=1152, out_features=4304, bias=True)
                      (fc2): Linear(in_features=4304, out_features=1152, bias=True)
                    )
                    (layer_norm2): LayerNorm((1152,), eps=1e-06, elementwise_affine=True)
                  )
                )
              )
              (post_layernorm): LayerNorm((1152,), eps=1e-06, elementwise_affine=True)
            )
          )
          (multi_modal_projector): PaliGemmaMultiModalProjector(
            (linear): Linear(in_features=1152, out_features=2048, bias=True)
          )
          (language_model): GemmaForCausalLM(
            (model): GemmaModel(
              (embed_tokens): Embedding(257216, 2048, padding_idx=0)
              (layers): ModuleList(
                (0-17): 18 x GemmaDecoderLayer(
                  (self_attn): GemmaSdpaAttention(
                    (q_proj): Linear(
                      in_features=2048, out_features=2048, bias=False
                      (adapter_dropout): Dropout(p=0.1, inplace=False)
                      (adapter_down): Linear(in_features=2048, out_features=512, bias=False)
                      (adapter_up): Linear(in_features=512, out_features=2048, bias=False)
                      (act_fn): ReLU()
                    )
                    (k_proj): Linear(
                      in_features=256, out_features=256, bias=False
                      (adapter_dropout): Dropout(p=0.1, inplace=False)
                      (adapter_down): Linear(in_features=256, out_features=512, bias=False)
                      (adapter_up): Linear(in_features=512, out_features=256, bias=False)
                      (act_fn): ReLU()
                    )
                    (v_proj): Linear(
                      in_features=256, out_features=256, bias=False
                      (adapter_dropout): Dropout(p=0.1, inplace=False)
                      (adapter_down): Linear(in_features=256, out_features=512, bias=False)
                      (adapter_up): Linear(in_features=512, out_features=256, bias=False)
                      (act_fn): ReLU()
                    )
                    (o_proj): Linear(
                      in_features=2048, out_features=2048, bias=False
                      (adapter_dropout): Dropout(p=0.1, inplace=False)
                      (adapter_down): Linear(in_features=2048, out_features=512, bias=False)
                      (adapter_up): Linear(in_features=512, out_features=2048, bias=False)
                      (act_fn): ReLU()
                    )
                    (rotary_emb): GemmaRotaryEmbedding()
                  )
                  (mlp): GemmaMLP(
                    (gate_proj): Linear(in_features=2048, out_features=16384, bias=False)
                    (up_proj): Linear(in_features=2048, out_features=16384, bias=False)
                    (down_proj): Linear(in_features=16384, out_features=2048, bias=False)
                    (act_fn): PytorchGELUTanh()
                  )
                  (input_layernorm): GemmaRMSNorm((2048,), eps=1e-06)
                  (post_attention_layernorm): GemmaRMSNorm((2048,), eps=1e-06)
                )
              )
              (norm): GemmaRMSNorm((2048,), eps=1e-06)
            )
            (lm_head): Linear(in_features=2048, out_features=257216, bias=False)
          )
        )
      )
    )
  )
)
Device check cuda:0 cuda
DistributedDataParallel(
  (module): PeftModelForCausalLM(
    (base_model): BottleneckModel(
      (model): PaliGemma_VQA(
        (model): PaliGemmaForConditionalGeneration(
          (vision_tower): SiglipVisionModel(
            (vision_model): SiglipVisionTransformer(
              (embeddings): SiglipVisionEmbeddings(
                (patch_embedding): Conv2d(3, 1152, kernel_size=(14, 14), stride=(14, 14), padding=valid)
                (position_embedding): Embedding(256, 1152)
              )
              (encoder): SiglipEncoder(
                (layers): ModuleList(
                  (0-26): 27 x SiglipEncoderLayer(
                    (self_attn): SiglipSdpaAttention(
                      (k_proj): Linear(
                        in_features=1152, out_features=1152, bias=True
                        (adapter_dropout): Dropout(p=0.1, inplace=False)
                        (adapter_down): Linear(in_features=1152, out_features=512, bias=False)
                        (adapter_up): Linear(in_features=512, out_features=1152, bias=False)
                        (act_fn): ReLU()
                      )
                      (v_proj): Linear(
                        in_features=1152, out_features=1152, bias=True
                        (adapter_dropout): Dropout(p=0.1, inplace=False)
                        (adapter_down): Linear(in_features=1152, out_features=512, bias=False)
                        (adapter_up): Linear(in_features=512, out_features=1152, bias=False)
                        (act_fn): ReLU()
                      )
                      (q_proj): Linear(
                        in_features=1152, out_features=1152, bias=True
                        (adapter_dropout): Dropout(p=0.1, inplace=False)
                        (adapter_down): Linear(in_features=1152, out_features=512, bias=False)
                        (adapter_up): Linear(in_features=512, out_features=1152, bias=False)
                        (act_fn): ReLU()
                      )
                      (out_proj): Linear(in_features=1152, out_features=1152, bias=True)
                    )
                    (layer_norm1): LayerNorm((1152,), eps=1e-06, elementwise_affine=True)
                    (mlp): SiglipMLP(
                      (activation_fn): PytorchGELUTanh()
                      (fc1): Linear(in_features=1152, out_features=4304, bias=True)
                      (fc2): Linear(in_features=4304, out_features=1152, bias=True)
                    )
                    (layer_norm2): LayerNorm((1152,), eps=1e-06, elementwise_affine=True)
                  )
                )
              )
              (post_layernorm): LayerNorm((1152,), eps=1e-06, elementwise_affine=True)
            )
          )
          (multi_modal_projector): PaliGemmaMultiModalProjector(
            (linear): Linear(in_features=1152, out_features=2048, bias=True)
          )
          (language_model): GemmaForCausalLM(
            (model): GemmaModel(
              (embed_tokens): Embedding(257216, 2048, padding_idx=0)
              (layers): ModuleList(
                (0-17): 18 x GemmaDecoderLayer(
                  (self_attn): GemmaSdpaAttention(
                    (q_proj): Linear(
                      in_features=2048, out_features=2048, bias=False
                      (adapter_dropout): Dropout(p=0.1, inplace=False)
                      (adapter_down): Linear(in_features=2048, out_features=512, bias=False)
                      (adapter_up): Linear(in_features=512, out_features=2048, bias=False)
                      (act_fn): ReLU()
                    )
                    (k_proj): Linear(
                      in_features=256, out_features=256, bias=False
                      (adapter_dropout): Dropout(p=0.1, inplace=False)
                      (adapter_down): Linear(in_features=256, out_features=512, bias=False)
                      (adapter_up): Linear(in_features=512, out_features=256, bias=False)
                      (act_fn): ReLU()
                    )
                    (v_proj): Linear(
                      in_features=256, out_features=256, bias=False
                      (adapter_dropout): Dropout(p=0.1, inplace=False)
                      (adapter_down): Linear(in_features=256, out_features=512, bias=False)
                      (adapter_up): Linear(in_features=512, out_features=256, bias=False)
                      (act_fn): ReLU()
                    )
                    (o_proj): Linear(
                      in_features=2048, out_features=2048, bias=False
                      (adapter_dropout): Dropout(p=0.1, inplace=False)
                      (adapter_down): Linear(in_features=2048, out_features=512, bias=False)
                      (adapter_up): Linear(in_features=512, out_features=2048, bias=False)
                      (act_fn): ReLU()
                    )
                    (rotary_emb): GemmaRotaryEmbedding()
                  )
                  (mlp): GemmaMLP(
                    (gate_proj): Linear(in_features=2048, out_features=16384, bias=False)
                    (up_proj): Linear(in_features=2048, out_features=16384, bias=False)
                    (down_proj): Linear(in_features=16384, out_features=2048, bias=False)
                    (act_fn): PytorchGELUTanh()
                  )
                  (input_layernorm): GemmaRMSNorm((2048,), eps=1e-06)
                  (post_attention_layernorm): GemmaRMSNorm((2048,), eps=1e-06)
                )
              )
              (norm): GemmaRMSNorm((2048,), eps=1e-06)
            )
            (lm_head): Linear(in_features=2048, out_features=257216, bias=False)
          )
        )
      )
    )
  )
)
DistributedDataParallel(
  (module): PeftModelForCausalLM(
    (base_model): BottleneckModel(
      (model): PaliGemma_VQA(
        (model): PaliGemmaForConditionalGeneration(
          (vision_tower): SiglipVisionModel(
            (vision_model): SiglipVisionTransformer(
              (embeddings): SiglipVisionEmbeddings(
                (patch_embedding): Conv2d(3, 1152, kernel_size=(14, 14), stride=(14, 14), padding=valid)
                (position_embedding): Embedding(256, 1152)
              )
              (encoder): SiglipEncoder(
                (layers): ModuleList(
                  (0-26): 27 x SiglipEncoderLayer(
                    (self_attn): SiglipSdpaAttention(
                      (k_proj): Linear(
                        in_features=1152, out_features=1152, bias=True
                        (adapter_dropout): Dropout(p=0.1, inplace=False)
                        (adapter_down): Linear(in_features=1152, out_features=512, bias=False)
                        (adapter_up): Linear(in_features=512, out_features=1152, bias=False)
                        (act_fn): ReLU()
                      )
                      (v_proj): Linear(
                        in_features=1152, out_features=1152, bias=True
                        (adapter_dropout): Dropout(p=0.1, inplace=False)
                        (adapter_down): Linear(in_features=1152, out_features=512, bias=False)
                        (adapter_up): Linear(in_features=512, out_features=1152, bias=False)
                        (act_fn): ReLU()
                      )
                      (q_proj): Linear(
                        in_features=1152, out_features=1152, bias=True
                        (adapter_dropout): Dropout(p=0.1, inplace=False)
                        (adapter_down): Linear(in_features=1152, out_features=512, bias=False)
                        (adapter_up): Linear(in_features=512, out_features=1152, bias=False)
                        (act_fn): ReLU()
                      )
                      (out_proj): Linear(in_features=1152, out_features=1152, bias=True)
                    )
                    (layer_norm1): LayerNorm((1152,), eps=1e-06, elementwise_affine=True)
                    (mlp): SiglipMLP(
                      (activation_fn): PytorchGELUTanh()
                      (fc1): Linear(in_features=1152, out_features=4304, bias=True)
                      (fc2): Linear(in_features=4304, out_features=1152, bias=True)
                    )
                    (layer_norm2): LayerNorm((1152,), eps=1e-06, elementwise_affine=True)
                  )
                )
              )
              (post_layernorm): LayerNorm((1152,), eps=1e-06, elementwise_affine=True)
            )
          )
          (multi_modal_projector): PaliGemmaMultiModalProjector(
            (linear): Linear(in_features=1152, out_features=2048, bias=True)
          )
          (language_model): GemmaForCausalLM(
            (model): GemmaModel(
              (embed_tokens): Embedding(257216, 2048, padding_idx=0)
              (layers): ModuleList(
                (0-17): 18 x GemmaDecoderLayer(
                  (self_attn): GemmaSdpaAttention(
                    (q_proj): Linear(
                      in_features=2048, out_features=2048, bias=False
                      (adapter_dropout): Dropout(p=0.1, inplace=False)
                      (adapter_down): Linear(in_features=2048, out_features=512, bias=False)
                      (adapter_up): Linear(in_features=512, out_features=2048, bias=False)
                      (act_fn): ReLU()
                    )
                    (k_proj): Linear(
                      in_features=256, out_features=256, bias=False
                      (adapter_dropout): Dropout(p=0.1, inplace=False)
                      (adapter_down): Linear(in_features=256, out_features=512, bias=False)
                      (adapter_up): Linear(in_features=512, out_features=256, bias=False)
                      (act_fn): ReLU()
                    )
                    (v_proj): Linear(
                      in_features=256, out_features=256, bias=False
                      (adapter_dropout): Dropout(p=0.1, inplace=False)
                      (adapter_down): Linear(in_features=256, out_features=512, bias=False)
                      (adapter_up): Linear(in_features=512, out_features=256, bias=False)
                      (act_fn): ReLU()
                    )
                    (o_proj): Linear(
                      in_features=2048, out_features=2048, bias=False
                      (adapter_dropout): Dropout(p=0.1, inplace=False)
                      (adapter_down): Linear(in_features=2048, out_features=512, bias=False)
                      (adapter_up): Linear(in_features=512, out_features=2048, bias=False)
                      (act_fn): ReLU()
                    )
                    (rotary_emb): GemmaRotaryEmbedding()
                  )
                  (mlp): GemmaMLP(
                    (gate_proj): Linear(in_features=2048, out_features=16384, bias=False)
                    (up_proj): Linear(in_features=2048, out_features=16384, bias=False)
                    (down_proj): Linear(in_features=16384, out_features=2048, bias=False)
                    (act_fn): PytorchGELUTanh()
                  )
                  (input_layernorm): GemmaRMSNorm((2048,), eps=1e-06)
                  (post_attention_layernorm): GemmaRMSNorm((2048,), eps=1e-06)
                )
              )
              (norm): GemmaRMSNorm((2048,), eps=1e-06)
            )
            (lm_head): Linear(in_features=2048, out_features=257216, bias=False)
          )
        )
      )
    )
  )
)
Device check cuda:0 cuda
DistributedDataParallel(
  (module): PeftModelForCausalLM(
    (base_model): BottleneckModel(
      (model): PaliGemma_VQA(
        (model): PaliGemmaForConditionalGeneration(
          (vision_tower): SiglipVisionModel(
            (vision_model): SiglipVisionTransformer(
              (embeddings): SiglipVisionEmbeddings(
                (patch_embedding): Conv2d(3, 1152, kernel_size=(14, 14), stride=(14, 14), padding=valid)
                (position_embedding): Embedding(256, 1152)
              )
              (encoder): SiglipEncoder(
                (layers): ModuleList(
                  (0-26): 27 x SiglipEncoderLayer(
                    (self_attn): SiglipSdpaAttention(
                      (k_proj): Linear(
                        in_features=1152, out_features=1152, bias=True
                        (adapter_dropout): Dropout(p=0.1, inplace=False)
                        (adapter_down): Linear(in_features=1152, out_features=512, bias=False)
                        (adapter_up): Linear(in_features=512, out_features=1152, bias=False)
                        (act_fn): ReLU()
                      )
                      (v_proj): Linear(
                        in_features=1152, out_features=1152, bias=True
                        (adapter_dropout): Dropout(p=0.1, inplace=False)
                        (adapter_down): Linear(in_features=1152, out_features=512, bias=False)
                        (adapter_up): Linear(in_features=512, out_features=1152, bias=False)
                        (act_fn): ReLU()
                      )
                      (q_proj): Linear(
                        in_features=1152, out_features=1152, bias=True
                        (adapter_dropout): Dropout(p=0.1, inplace=False)
                        (adapter_down): Linear(in_features=1152, out_features=512, bias=False)
                        (adapter_up): Linear(in_features=512, out_features=1152, bias=False)
                        (act_fn): ReLU()
                      )
                      (out_proj): Linear(in_features=1152, out_features=1152, bias=True)
                    )
                    (layer_norm1): LayerNorm((1152,), eps=1e-06, elementwise_affine=True)
                    (mlp): SiglipMLP(
                      (activation_fn): PytorchGELUTanh()
                      (fc1): Linear(in_features=1152, out_features=4304, bias=True)
                      (fc2): Linear(in_features=4304, out_features=1152, bias=True)
                    )
                    (layer_norm2): LayerNorm((1152,), eps=1e-06, elementwise_affine=True)
                  )
                )
              )
              (post_layernorm): LayerNorm((1152,), eps=1e-06, elementwise_affine=True)
            )
          )
          (multi_modal_projector): PaliGemmaMultiModalProjector(
            (linear): Linear(in_features=1152, out_features=2048, bias=True)
          )
          (language_model): GemmaForCausalLM(
            (model): GemmaModel(
              (embed_tokens): Embedding(257216, 2048, padding_idx=0)
              (layers): ModuleList(
                (0-17): 18 x GemmaDecoderLayer(
                  (self_attn): GemmaSdpaAttention(
                    (q_proj): Linear(
                      in_features=2048, out_features=2048, bias=False
                      (adapter_dropout): Dropout(p=0.1, inplace=False)
                      (adapter_down): Linear(in_features=2048, out_features=512, bias=False)
                      (adapter_up): Linear(in_features=512, out_features=2048, bias=False)
                      (act_fn): ReLU()
                    )
                    (k_proj): Linear(
                      in_features=256, out_features=256, bias=False
                      (adapter_dropout): Dropout(p=0.1, inplace=False)
                      (adapter_down): Linear(in_features=256, out_features=512, bias=False)
                      (adapter_up): Linear(in_features=512, out_features=256, bias=False)
                      (act_fn): ReLU()
                    )
                    (v_proj): Linear(
                      in_features=256, out_features=256, bias=False
                      (adapter_dropout): Dropout(p=0.1, inplace=False)
                      (adapter_down): Linear(in_features=256, out_features=512, bias=False)
                      (adapter_up): Linear(in_features=512, out_features=256, bias=False)
                      (act_fn): ReLU()
                    )
                    (o_proj): Linear(
                      in_features=2048, out_features=2048, bias=False
                      (adapter_dropout): Dropout(p=0.1, inplace=False)
                      (adapter_down): Linear(in_features=2048, out_features=512, bias=False)
                      (adapter_up): Linear(in_features=512, out_features=2048, bias=False)
                      (act_fn): ReLU()
                    )
                    (rotary_emb): GemmaRotaryEmbedding()
                  )
                  (mlp): GemmaMLP(
                    (gate_proj): Linear(in_features=2048, out_features=16384, bias=False)
                    (up_proj): Linear(in_features=2048, out_features=16384, bias=False)
                    (down_proj): Linear(in_features=16384, out_features=2048, bias=False)
                    (act_fn): PytorchGELUTanh()
                  )
                  (input_layernorm): GemmaRMSNorm((2048,), eps=1e-06)
                  (post_attention_layernorm): GemmaRMSNorm((2048,), eps=1e-06)
                )
              )
              (norm): GemmaRMSNorm((2048,), eps=1e-06)
            )
            (lm_head): Linear(in_features=2048, out_features=257216, bias=False)
          )
        )
      )
    )
  )
)
Device check cuda:0 cuda
DistributedDataParallel(
  (module): PeftModelForCausalLM(
    (base_model): BottleneckModel(
      (model): PaliGemma_VQA(
        (model): PaliGemmaForConditionalGeneration(
          (vision_tower): SiglipVisionModel(
            (vision_model): SiglipVisionTransformer(
              (embeddings): SiglipVisionEmbeddings(
                (patch_embedding): Conv2d(3, 1152, kernel_size=(14, 14), stride=(14, 14), padding=valid)
                (position_embedding): Embedding(256, 1152)
              )
              (encoder): SiglipEncoder(
                (layers): ModuleList(
                  (0-26): 27 x SiglipEncoderLayer(
                    (self_attn): SiglipSdpaAttention(
                      (k_proj): Linear(
                        in_features=1152, out_features=1152, bias=True
                        (adapter_dropout): Dropout(p=0.1, inplace=False)
                        (adapter_down): Linear(in_features=1152, out_features=512, bias=False)
                        (adapter_up): Linear(in_features=512, out_features=1152, bias=False)
                        (act_fn): ReLU()
                      )
                      (v_proj): Linear(
                        in_features=1152, out_features=1152, bias=True
                        (adapter_dropout): Dropout(p=0.1, inplace=False)
                        (adapter_down): Linear(in_features=1152, out_features=512, bias=False)
                        (adapter_up): Linear(in_features=512, out_features=1152, bias=False)
                        (act_fn): ReLU()
                      )
                      (q_proj): Linear(
                        in_features=1152, out_features=1152, bias=True
                        (adapter_dropout): Dropout(p=0.1, inplace=False)
                        (adapter_down): Linear(in_features=1152, out_features=512, bias=False)
                        (adapter_up): Linear(in_features=512, out_features=1152, bias=False)
                        (act_fn): ReLU()
                      )
                      (out_proj): Linear(in_features=1152, out_features=1152, bias=True)
                    )
                    (layer_norm1): LayerNorm((1152,), eps=1e-06, elementwise_affine=True)
                    (mlp): SiglipMLP(
                      (activation_fn): PytorchGELUTanh()
                      (fc1): Linear(in_features=1152, out_features=4304, bias=True)
                      (fc2): Linear(in_features=4304, out_features=1152, bias=True)
                    )
                    (layer_norm2): LayerNorm((1152,), eps=1e-06, elementwise_affine=True)
                  )
                )
              )
              (post_layernorm): LayerNorm((1152,), eps=1e-06, elementwise_affine=True)
            )
          )
          (multi_modal_projector): PaliGemmaMultiModalProjector(
            (linear): Linear(in_features=1152, out_features=2048, bias=True)
          )
          (language_model): GemmaForCausalLM(
            (model): GemmaModel(
              (embed_tokens): Embedding(257216, 2048, padding_idx=0)
              (layers): ModuleList(
                (0-17): 18 x GemmaDecoderLayer(
                  (self_attn): GemmaSdpaAttention(
                    (q_proj): Linear(
                      in_features=2048, out_features=2048, bias=False
                      (adapter_dropout): Dropout(p=0.1, inplace=False)
                      (adapter_down): Linear(in_features=2048, out_features=512, bias=False)
                      (adapter_up): Linear(in_features=512, out_features=2048, bias=False)
                      (act_fn): ReLU()
                    )
                    (k_proj): Linear(
                      in_features=256, out_features=256, bias=False
                      (adapter_dropout): Dropout(p=0.1, inplace=False)
                      (adapter_down): Linear(in_features=256, out_features=512, bias=False)
                      (adapter_up): Linear(in_features=512, out_features=256, bias=False)
                      (act_fn): ReLU()
                    )
                    (v_proj): Linear(
                      in_features=256, out_features=256, bias=False
                      (adapter_dropout): Dropout(p=0.1, inplace=False)
                      (adapter_down): Linear(in_features=256, out_features=512, bias=False)
                      (adapter_up): Linear(in_features=512, out_features=256, bias=False)
                      (act_fn): ReLU()
                    )
                    (o_proj): Linear(
                      in_features=2048, out_features=2048, bias=False
                      (adapter_dropout): Dropout(p=0.1, inplace=False)
                      (adapter_down): Linear(in_features=2048, out_features=512, bias=False)
                      (adapter_up): Linear(in_features=512, out_features=2048, bias=False)
                      (act_fn): ReLU()
                    )
                    (rotary_emb): GemmaRotaryEmbedding()
                  )
                  (mlp): GemmaMLP(
                    (gate_proj): Linear(in_features=2048, out_features=16384, bias=False)
                    (up_proj): Linear(in_features=2048, out_features=16384, bias=False)
                    (down_proj): Linear(in_features=16384, out_features=2048, bias=False)
                    (act_fn): PytorchGELUTanh()
                  )
                  (input_layernorm): GemmaRMSNorm((2048,), eps=1e-06)
                  (post_attention_layernorm): GemmaRMSNorm((2048,), eps=1e-06)
                )
              )
              (norm): GemmaRMSNorm((2048,), eps=1e-06)
            )
            (lm_head): Linear(in_features=2048, out_features=257216, bias=False)
          )
        )
      )
    )
  )
)
Train: data epoch: [1]  [    0/10282]  eta: 14:45:43  lr: 0.000010  loss: 0.0873  time: 5.1686  data: 0.0000  max mem: 24659
Train: data epoch: [1]  [   50/10282]  eta: 6:34:27  lr: 0.000010  loss: 0.4229  time: 2.3135  data: 0.0000  max mem: 24659
Train: data epoch: [1]  [  100/10282]  eta: 6:30:22  lr: 0.000010  loss: 0.4067  time: 2.2936  data: 0.0000  max mem: 24659
…
#######] 99% Finshed Percent: [####################] 99% Finshed Percent: [####################] 99% Finshed Percent: [####################] 99% Finshed Percent: [####################] 99% Done computing accuracy
Device check cuda:0 cuda
DistributedDataParallel(
  (module): PeftModelForCausalLM(
    (base_model): BottleneckModel(
      (model): PaliGemma_VQA(
        (model): PaliGemmaForConditionalGeneration(
          (vision_tower): SiglipVisionModel(
            (vision_model): SiglipVisionTransformer(
              (embeddings): SiglipVisionEmbeddings(
                (patch_embedding): Conv2d(3, 1152, kernel_size=(14, 14), stride=(14, 14), padding=valid)
                (position_embedding): Embedding(256, 1152)
              )
              (encoder): SiglipEncoder(
                (layers): ModuleList(
                  (0-26): 27 x SiglipEncoderLayer(
                    (self_attn): SiglipSdpaAttention(
                      (k_proj): Linear(
                        in_features=1152, out_features=1152, bias=True
                        (adapter_dropout): Dropout(p=0.1, inplace=False)
                        (adapter_down): Linear(in_features=1152, out_features=512, bias=False)
                        (adapter_up): Linear(in_features=512, out_features=1152, bias=False)
                        (act_fn): ReLU()
                      )
                      (v_proj): Linear(
                        in_features=1152, out_features=1152, bias=True
                        (adapter_dropout): Dropout(p=0.1, inplace=False)
                        (adapter_down): Linear(in_features=1152, out_features=512, bias=False)
                        (adapter_up): Linear(in_features=512, out_features=1152, bias=False)
                        (act_fn): ReLU()
                      )
                      (q_proj): Linear(
                        in_features=1152, out_features=1152, bias=True
                        (adapter_dropout): Dropout(p=0.1, inplace=False)
                        (adapter_down): Linear(in_features=1152, out_features=512, bias=False)
                        (adapter_up): Linear(in_features=512, out_features=1152, bias=False)
                        (act_fn): ReLU()
                      )
                      (out_proj): Linear(in_features=1152, out_features=1152, bias=True)
                    )
                    (layer_norm1): LayerNorm((1152,), eps=1e-06, elementwise_affine=True)
                    (mlp): SiglipMLP(
                      (activation_fn): PytorchGELUTanh()
                      (fc1): Linear(in_features=1152, out_features=4304, bias=True)
                      (fc2): Linear(in_features=4304, out_features=1152, bias=True)
                    )
                    (layer_norm2): LayerNorm((1152,), eps=1e-06, elementwise_affine=True)
                  )
                )
              )
              (post_layernorm): LayerNorm((1152,), eps=1e-06, elementwise_affine=True)
            )
          )
          (multi_modal_projector): PaliGemmaMultiModalProjector(
            (linear): Linear(in_features=1152, out_features=2048, bias=True)
          )
          (language_model): GemmaForCausalLM(
            (model): GemmaModel(
              (embed_tokens): Embedding(257216, 2048, padding_idx=0)
              (layers): ModuleList(
                (0-17): 18 x GemmaDecoderLayer(
                  (self_attn): GemmaSdpaAttention(
                    (q_proj): Linear(
                      in_features=2048, out_features=2048, bias=False
                      (adapter_dropout): Dropout(p=0.1, inplace=False)
                      (adapter_down): Linear(in_features=2048, out_features=512, bias=False)
                      (adapter_up): Linear(in_features=512, out_features=2048, bias=False)
                      (act_fn): ReLU()
                    )
                    (k_proj): Linear(
                      in_features=256, out_features=256, bias=False
                      (adapter_dropout): Dropout(p=0.1, inplace=False)
                      (adapter_down): Linear(in_features=256, out_features=512, bias=False)
                      (adapter_up): Linear(in_features=512, out_features=256, bias=False)
                      (act_fn): ReLU()
                    )
                    (v_proj): Linear(
                      in_features=256, out_features=256, bias=False
                      (adapter_dropout): Dropout(p=0.1, inplace=False)
                      (adapter_down): Linear(in_features=256, out_features=512, bias=False)
                      (adapter_up): Linear(in_features=512, out_features=256, bias=False)
                      (act_fn): ReLU()
                    )
                    (o_proj): Linear(
                      in_features=2048, out_features=2048, bias=False
                      (adapter_dropout): Dropout(p=0.1, inplace=False)
                      (adapter_down): Linear(in_features=2048, out_features=512, bias=False)
                      (adapter_up): Linear(in_features=512, out_features=2048, bias=False)
                      (act_fn): ReLU()
                    )
                    (rotary_emb): GemmaRotaryEmbedding()
                  )
                  (mlp): GemmaMLP(
                    (gate_proj): Linear(in_features=2048, out_features=16384, bias=False)
                    (up_proj): Linear(in_features=2048, out_features=16384, bias=False)
                    (down_proj): Linear(in_features=16384, out_features=2048, bias=False)
                    (act_fn): PytorchGELUTanh()
                  )
                  (input_layernorm): GemmaRMSNorm((2048,), eps=1e-06)
                  (post_attention_layernorm): GemmaRMSNorm((2048,), eps=1e-06)
                )
              )
              (norm): GemmaRMSNorm((2048,), eps=1e-06)
            )
            (lm_head): Linear(in_features=2048, out_features=257216, bias=False)
          )
        )
      )
    )
  )
)
Device check cuda:0 cuda
DistributedDataParallel(
  (module): PeftModelForCausalLM(
    (base_model): BottleneckModel(
      (model): PaliGemma_VQA(
        (model): PaliGemmaForConditionalGeneration(
          (vision_tower): SiglipVisionModel(
            (vision_model): SiglipVisionTransformer(
              (embeddings): SiglipVisionEmbeddings(
                (patch_embedding): Conv2d(3, 1152, kernel_size=(14, 14), stride=(14, 14), padding=valid)
                (position_embedding): Embedding(256, 1152)
              )
              (encoder): SiglipEncoder(
                (layers): ModuleList(
                  (0-26): 27 x SiglipEncoderLayer(
                    (self_attn): SiglipSdpaAttention(
                      (k_proj): Linear(
                        in_features=1152, out_features=1152, bias=True
                        (adapter_dropout): Dropout(p=0.1, inplace=False)
                        (adapter_down): Linear(in_features=1152, out_features=512, bias=False)
                        (adapter_up): Linear(in_features=512, out_features=1152, bias=False)
                        (act_fn): ReLU()
                      )
                      (v_proj): Linear(
                        in_features=1152, out_features=1152, bias=True
                        (adapter_dropout): Dropout(p=0.1, inplace=False)
                        (adapter_down): Linear(in_features=1152, out_features=512, bias=False)
                        (adapter_up): Linear(in_features=512, out_features=1152, bias=False)
                        (act_fn): ReLU()
                      )
                      (q_proj): Linear(
                        in_features=1152, out_features=1152, bias=True
                        (adapter_dropout): Dropout(p=0.1, inplace=False)
                        (adapter_down): Linear(in_features=1152, out_features=512, bias=False)
                        (adapter_up): Linear(in_features=512, out_features=1152, bias=False)
                        (act_fn): ReLU()
                      )
                      (out_proj): Linear(in_features=1152, out_features=1152, bias=True)
                    )
                    (layer_norm1): LayerNorm((1152,), eps=1e-06, elementwise_affine=True)
                    (mlp): SiglipMLP(
                      (activation_fn): PytorchGELUTanh()
                      (fc1): Linear(in_features=1152, out_features=4304, bias=True)
                      (fc2): Linear(in_features=4304, out_features=1152, bias=True)
                    )
                    (layer_norm2): LayerNorm((1152,), eps=1e-06, elementwise_affine=True)
                  )
                )
              )
              (post_layernorm): LayerNorm((1152,), eps=1e-06, elementwise_affine=True)
            )
          )
          (multi_modal_projector): PaliGemmaMultiModalProjector(
            (linear): Linear(in_features=1152, out_features=2048, bias=True)
          )
          (language_model): GemmaForCausalLM(
            (model): GemmaModel(
              (embed_tokens): Embedding(257216, 2048, padding_idx=0)
              (layers): ModuleList(
                (0-17): 18 x GemmaDecoderLayer(
                  (self_attn): GemmaSdpaAttention(
                    (q_proj): Linear(
                      in_features=2048, out_features=2048, bias=False
                      (adapter_dropout): Dropout(p=0.1, inplace=False)
                      (adapter_down): Linear(in_features=2048, out_features=512, bias=False)
                      (adapter_up): Linear(in_features=512, out_features=2048, bias=False)
                      (act_fn): ReLU()
                    )
                    (k_proj): Linear(
                      in_features=256, out_features=256, bias=False
                      (adapter_dropout): Dropout(p=0.1, inplace=False)
                      (adapter_down): Linear(in_features=256, out_features=512, bias=False)
                      (adapter_up): Linear(in_features=512, out_features=256, bias=False)
                      (act_fn): ReLU()
                    )
                    (v_proj): Linear(
                      in_features=256, out_features=256, bias=False
                      (adapter_dropout): Dropout(p=0.1, inplace=False)
                      (adapter_down): Linear(in_features=256, out_features=512, bias=False)
                      (adapter_up): Linear(in_features=512, out_features=256, bias=False)
                      (act_fn): ReLU()
                    )
                    (o_proj): Linear(
                      in_features=2048, out_features=2048, bias=False
                      (adapter_dropout): Dropout(p=0.1, inplace=False)
                      (adapter_down): Linear(in_features=2048, out_features=512, bias=False)
                      (adapter_up): Linear(in_features=512, out_features=2048, bias=False)
                      (act_fn): ReLU()
                    )
                    (rotary_emb): GemmaRotaryEmbedding()
                  )
                  (mlp): GemmaMLP(
                    (gate_proj): Linear(in_features=2048, out_features=16384, bias=False)
                    (up_proj): Linear(in_features=2048, out_features=16384, bias=False)
                    (down_proj): Linear(in_features=16384, out_features=2048, bias=False)
                    (act_fn): PytorchGELUTanh()
                  )
                  (input_layernorm): GemmaRMSNorm((2048,), eps=1e-06)
                  (post_attention_layernorm): GemmaRMSNorm((2048,), eps=1e-06)
                )
              )
              (norm): GemmaRMSNorm((2048,), eps=1e-06)
            )
            (lm_head): Linear(in_features=2048, out_features=257216, bias=False)
          )
        )
      )
    )
  )
)
DistributedDataParallel(
  (module): PeftModelForCausalLM(
    (base_model): BottleneckModel(
      (model): PaliGemma_VQA(
        (model): PaliGemmaForConditionalGeneration(
          (vision_tower): SiglipVisionModel(
            (vision_model): SiglipVisionTransformer(
              (embeddings): SiglipVisionEmbeddings(
                (patch_embedding): Conv2d(3, 1152, kernel_size=(14, 14), stride=(14, 14), padding=valid)
                (position_embedding): Embedding(256, 1152)
              )
              (encoder): SiglipEncoder(
                (layers): ModuleList(
                  (0-26): 27 x SiglipEncoderLayer(
                    (self_attn): SiglipSdpaAttention(
                      (k_proj): Linear(
                        in_features=1152, out_features=1152, bias=True
                        (adapter_dropout): Dropout(p=0.1, inplace=False)
                        (adapter_down): Linear(in_features=1152, out_features=512, bias=False)
                        (adapter_up): Linear(in_features=512, out_features=1152, bias=False)
                        (act_fn): ReLU()
                      )
                      (v_proj): Linear(
                        in_features=1152, out_features=1152, bias=True
                        (adapter_dropout): Dropout(p=0.1, inplace=False)
                        (adapter_down): Linear(in_features=1152, out_features=512, bias=False)
                        (adapter_up): Linear(in_features=512, out_features=1152, bias=False)
                        (act_fn): ReLU()
                      )
                      (q_proj): Linear(
                        in_features=1152, out_features=1152, bias=True
                        (adapter_dropout): Dropout(p=0.1, inplace=False)
                        (adapter_down): Linear(in_features=1152, out_features=512, bias=False)
                        (adapter_up): Linear(in_features=512, out_features=1152, bias=False)
                        (act_fn): ReLU()
                      )
                      (out_proj): Linear(in_features=1152, out_features=1152, bias=True)
                    )
                    (layer_norm1): LayerNorm((1152,), eps=1e-06, elementwise_affine=True)
                    (mlp): SiglipMLP(
                      (activation_fn): PytorchGELUTanh()
                      (fc1): Linear(in_features=1152, out_features=4304, bias=True)
                      (fc2): Linear(in_features=4304, out_features=1152, bias=True)
                    )
                    (layer_norm2): LayerNorm((1152,), eps=1e-06, elementwise_affine=True)
                  )
                )
              )
              (post_layernorm): LayerNorm((1152,), eps=1e-06, elementwise_affine=True)
            )
          )
          (multi_modal_projector): PaliGemmaMultiModalProjector(
            (linear): Linear(in_features=1152, out_features=2048, bias=True)
          )
          (language_model): GemmaForCausalLM(
            (model): GemmaModel(
              (embed_tokens): Embedding(257216, 2048, padding_idx=0)
              (layers): ModuleList(
                (0-17): 18 x GemmaDecoderLayer(
                  (self_attn): GemmaSdpaAttention(
                    (q_proj): Linear(
                      in_features=2048, out_features=2048, bias=False
                      (adapter_dropout): Dropout(p=0.1, inplace=False)
                      (adapter_down): Linear(in_features=2048, out_features=512, bias=False)
                      (adapter_up): Linear(in_features=512, out_features=2048, bias=False)
                      (act_fn): ReLU()
                    )
                    (k_proj): Linear(
                      in_features=256, out_features=256, bias=False
                      (adapter_dropout): Dropout(p=0.1, inplace=False)
                      (adapter_down): Linear(in_features=256, out_features=512, bias=False)
                      (adapter_up): Linear(in_features=512, out_features=256, bias=False)
                      (act_fn): ReLU()
                    )
                    (v_proj): Linear(
                      in_features=256, out_features=256, bias=False
                      (adapter_dropout): Dropout(p=0.1, inplace=False)
                      (adapter_down): Linear(in_features=256, out_features=512, bias=False)
                      (adapter_up): Linear(in_features=512, out_features=256, bias=False)
                      (act_fn): ReLU()
                    )
                    (o_proj): Linear(
                      in_features=2048, out_features=2048, bias=False
                      (adapter_dropout): Dropout(p=0.1, inplace=False)
                      (adapter_down): Linear(in_features=2048, out_features=512, bias=False)
                      (adapter_up): Linear(in_features=512, out_features=2048, bias=False)
                      (act_fn): ReLU()
                    )
                    (rotary_emb): GemmaRotaryEmbedding()
                  )
                  (mlp): GemmaMLP(
                    (gate_proj): Linear(in_features=2048, out_features=16384, bias=False)
                    (up_proj): Linear(in_features=2048, out_features=16384, bias=False)
                    (down_proj): Linear(in_features=16384, out_features=2048, bias=False)
                    (act_fn): PytorchGELUTanh()
                  )
                  (input_layernorm): GemmaRMSNorm((2048,), eps=1e-06)
                  (post_attention_layernorm): GemmaRMSNorm((2048,), eps=1e-06)
                )
              )
              (norm): GemmaRMSNorm((2048,), eps=1e-06)
            )
            (lm_head): Linear(in_features=2048, out_features=257216, bias=False)
          )
        )
      )
    )
  )
)
Device check cuda:0 cuda
DistributedDataParallel(
  (module): PeftModelForCausalLM(
    (base_model): BottleneckModel(
      (model): PaliGemma_VQA(
        (model): PaliGemmaForConditionalGeneration(
          (vision_tower): SiglipVisionModel(
            (vision_model): SiglipVisionTransformer(
              (embeddings): SiglipVisionEmbeddings(
                (patch_embedding): Conv2d(3, 1152, kernel_size=(14, 14), stride=(14, 14), padding=valid)
                (position_embedding): Embedding(256, 1152)
              )
              (encoder): SiglipEncoder(
                (layers): ModuleList(
                  (0-26): 27 x SiglipEncoderLayer(
                    (self_attn): SiglipSdpaAttention(
                      (k_proj): Linear(
                        in_features=1152, out_features=1152, bias=True
                        (adapter_dropout): Dropout(p=0.1, inplace=False)
                        (adapter_down): Linear(in_features=1152, out_features=512, bias=False)
                        (adapter_up): Linear(in_features=512, out_features=1152, bias=False)
                        (act_fn): ReLU()
                      )
                      (v_proj): Linear(
                        in_features=1152, out_features=1152, bias=True
                        (adapter_dropout): Dropout(p=0.1, inplace=False)
                        (adapter_down): Linear(in_features=1152, out_features=512, bias=False)
                        (adapter_up): Linear(in_features=512, out_features=1152, bias=False)
                        (act_fn): ReLU()
                      )
                      (q_proj): Linear(
                        in_features=1152, out_features=1152, bias=True
                        (adapter_dropout): Dropout(p=0.1, inplace=False)
                        (adapter_down): Linear(in_features=1152, out_features=512, bias=False)
                        (adapter_up): Linear(in_features=512, out_features=1152, bias=False)
                        (act_fn): ReLU()
                      )
                      (out_proj): Linear(in_features=1152, out_features=1152, bias=True)
                    )
                    (layer_norm1): LayerNorm((1152,), eps=1e-06, elementwise_affine=True)
                    (mlp): SiglipMLP(
                      (activation_fn): PytorchGELUTanh()
                      (fc1): Linear(in_features=1152, out_features=4304, bias=True)
                      (fc2): Linear(in_features=4304, out_features=1152, bias=True)
                    )
                    (layer_norm2): LayerNorm((1152,), eps=1e-06, elementwise_affine=True)
                  )
                )
              )
              (post_layernorm): LayerNorm((1152,), eps=1e-06, elementwise_affine=True)
            )
          )
          (multi_modal_projector): PaliGemmaMultiModalProjector(
            (linear): Linear(in_features=1152, out_features=2048, bias=True)
          )
          (language_model): GemmaForCausalLM(
            (model): GemmaModel(
              (embed_tokens): Embedding(257216, 2048, padding_idx=0)
              (layers): ModuleList(
                (0-17): 18 x GemmaDecoderLayer(
                  (self_attn): GemmaSdpaAttention(
                    (q_proj): Linear(
                      in_features=2048, out_features=2048, bias=False
                      (adapter_dropout): Dropout(p=0.1, inplace=False)
                      (adapter_down): Linear(in_features=2048, out_features=512, bias=False)
                      (adapter_up): Linear(in_features=512, out_features=2048, bias=False)
                      (act_fn): ReLU()
                    )
                    (k_proj): Linear(
                      in_features=256, out_features=256, bias=False
                      (adapter_dropout): Dropout(p=0.1, inplace=False)
                      (adapter_down): Linear(in_features=256, out_features=512, bias=False)
                      (adapter_up): Linear(in_features=512, out_features=256, bias=False)
                      (act_fn): ReLU()
                    )
                    (v_proj): Linear(
                      in_features=256, out_features=256, bias=False
                      (adapter_dropout): Dropout(p=0.1, inplace=False)
                      (adapter_down): Linear(in_features=256, out_features=512, bias=False)
                      (adapter_up): Linear(in_features=512, out_features=256, bias=False)
                      (act_fn): ReLU()
                    )
                    (o_proj): Linear(
                      in_features=2048, out_features=2048, bias=False
                      (adapter_dropout): Dropout(p=0.1, inplace=False)
                      (adapter_down): Linear(in_features=2048, out_features=512, bias=False)
                      (adapter_up): Linear(in_features=512, out_features=2048, bias=False)
                      (act_fn): ReLU()
                    )
                    (rotary_emb): GemmaRotaryEmbedding()
                  )
                  (mlp): GemmaMLP(
                    (gate_proj): Linear(in_features=2048, out_features=16384, bias=False)
                    (up_proj): Linear(in_features=2048, out_features=16384, bias=False)
                    (down_proj): Linear(in_features=16384, out_features=2048, bias=False)
                    (act_fn): PytorchGELUTanh()
                  )
                  (input_layernorm): GemmaRMSNorm((2048,), eps=1e-06)
                  (post_attention_layernorm): GemmaRMSNorm((2048,), eps=1e-06)
                )
              )
              (norm): GemmaRMSNorm((2048,), eps=1e-06)
            )
            (lm_head): Linear(in_features=2048, out_features=257216, bias=False)
          )
        )
      )
    )
  )
)
Device check cuda:0 cuda
DistributedDataParallel(
  (module): PeftModelForCausalLM(
    (base_model): BottleneckModel(
      (model): PaliGemma_VQA(
        (model): PaliGemmaForConditionalGeneration(
          (vision_tower): SiglipVisionModel(
            (vision_model): SiglipVisionTransformer(
              (embeddings): SiglipVisionEmbeddings(
                (patch_embedding): Conv2d(3, 1152, kernel_size=(14, 14), stride=(14, 14), padding=valid)
                (position_embedding): Embedding(256, 1152)
              )
              (encoder): SiglipEncoder(
                (layers): ModuleList(
                  (0-26): 27 x SiglipEncoderLayer(
                    (self_attn): SiglipSdpaAttention(
                      (k_proj): Linear(
                        in_features=1152, out_features=1152, bias=True
                        (adapter_dropout): Dropout(p=0.1, inplace=False)
                        (adapter_down): Linear(in_features=1152, out_features=512, bias=False)
                        (adapter_up): Linear(in_features=512, out_features=1152, bias=False)
                        (act_fn): ReLU()
                      )
                      (v_proj): Linear(
                        in_features=1152, out_features=1152, bias=True
                        (adapter_dropout): Dropout(p=0.1, inplace=False)
                        (adapter_down): Linear(in_features=1152, out_features=512, bias=False)
                        (adapter_up): Linear(in_features=512, out_features=1152, bias=False)
                        (act_fn): ReLU()
                      )
                      (q_proj): Linear(
                        in_features=1152, out_features=1152, bias=True
                        (adapter_dropout): Dropout(p=0.1, inplace=False)
                        (adapter_down): Linear(in_features=1152, out_features=512, bias=False)
                        (adapter_up): Linear(in_features=512, out_features=1152, bias=False)
                        (act_fn): ReLU()
                      )
                      (out_proj): Linear(in_features=1152, out_features=1152, bias=True)
                    )
                    (layer_norm1): LayerNorm((1152,), eps=1e-06, elementwise_affine=True)
                    (mlp): SiglipMLP(
                      (activation_fn): PytorchGELUTanh()
                      (fc1): Linear(in_features=1152, out_features=4304, bias=True)
                      (fc2): Linear(in_features=4304, out_features=1152, bias=True)
                    )
                    (layer_norm2): LayerNorm((1152,), eps=1e-06, elementwise_affine=True)
                  )
                )
              )
              (post_layernorm): LayerNorm((1152,), eps=1e-06, elementwise_affine=True)
            )
          )
          (multi_modal_projector): PaliGemmaMultiModalProjector(
            (linear): Linear(in_features=1152, out_features=2048, bias=True)
          )
          (language_model): GemmaForCausalLM(
            (model): GemmaModel(
              (embed_tokens): Embedding(257216, 2048, padding_idx=0)
              (layers): ModuleList(
                (0-17): 18 x GemmaDecoderLayer(
                  (self_attn): GemmaSdpaAttention(
                    (q_proj): Linear(
                      in_features=2048, out_features=2048, bias=False
                      (adapter_dropout): Dropout(p=0.1, inplace=False)
                      (adapter_down): Linear(in_features=2048, out_features=512, bias=False)
                      (adapter_up): Linear(in_features=512, out_features=2048, bias=False)
                      (act_fn): ReLU()
                    )
                    (k_proj): Linear(
                      in_features=256, out_features=256, bias=False
                      (adapter_dropout): Dropout(p=0.1, inplace=False)
                      (adapter_down): Linear(in_features=256, out_features=512, bias=False)
                      (adapter_up): Linear(in_features=512, out_features=256, bias=False)
                      (act_fn): ReLU()
                    )
                    (v_proj): Linear(
                      in_features=256, out_features=256, bias=False
                      (adapter_dropout): Dropout(p=0.1, inplace=False)
                      (adapter_down): Linear(in_features=256, out_features=512, bias=False)
                      (adapter_up): Linear(in_features=512, out_features=256, bias=False)
                      (act_fn): ReLU()
                    )
                    (o_proj): Linear(
                      in_features=2048, out_features=2048, bias=False
                      (adapter_dropout): Dropout(p=0.1, inplace=False)
                      (adapter_down): Linear(in_features=2048, out_features=512, bias=False)
                      (adapter_up): Linear(in_features=512, out_features=2048, bias=False)
                      (act_fn): ReLU()
                    )
                    (rotary_emb): GemmaRotaryEmbedding()
                  )
                  (mlp): GemmaMLP(
                    (gate_proj): Linear(in_features=2048, out_features=16384, bias=False)
                    (up_proj): Linear(in_features=2048, out_features=16384, bias=False)
                    (down_proj): Linear(in_features=16384, out_features=2048, bias=False)
                    (act_fn): PytorchGELUTanh()
                  )
                  (input_layernorm): GemmaRMSNorm((2048,), eps=1e-06)
                  (post_attention_layernorm): GemmaRMSNorm((2048,), eps=1e-06)
                )
              )
              (norm): GemmaRMSNorm((2048,), eps=1e-06)
            )
            (lm_head): Linear(in_features=2048, out_features=257216, bias=False)
          )
        )
      )
    )
  )
)
Train: data epoch: [2]  [    0/10282]  eta: 15:24:34  lr: 0.000009  loss: 0.1923  time: 5.3954  data: 0.0001  max mem: 24695
Train: data epoch: [2]  [   50/10282]  eta: 6:25:04  lr: 0.000009  loss: 0.3055  time: 2.2752  data: 0.0000  max mem: 24695
Train: data epoch: [2]  [  100/10282]  eta: 6:20:25  lr: 0.000009  loss: 0.3095  time: 2.1742  data: 0.0000  max mem: 24695
…
